TASK1(A)/best_model_loss.pth (torch, 583661 bytes, 10 tensors)

fc1.weight f4 [256, 300]
-0.008850854 0.017127309 0.0029347362 0.06581812 -0.008025715 0.042640362 0.049720418 0.025378108
0.025303997 -0.052205876 -0.041598108 0.03477207 -0.04600261 0.026101172 0.03034591 0.05277431
0.047664504 0.035059437 -0.041879755 0.02731475 0.044508778 0.019619538 -0.0026325125 0.031785402
0.024697518 0.010977768 0.062183082 0.022426043 0.03450831 -0.056099273 -0.010705625 -0.039935894
0.033365674 0.0063387435 0.045570545 -0.013968542 0.047310043 -0.0014235058 0.03425433 -0.0038639533
0.005230891 -0.0021914851 -0.047172822 0.0654912 -0.05566201 0.04601691 0.0071789944 0.0075336006
-0.027871568 0.027711868 -0.034372315 -0.043787044 0.037689984 0.045647375 0.02740167 -0.051638085
0.049516167 -0.0473707 -0.024893882 -0.042509526 -0.022625457 0.048606064 0.031939737 -0.029952353
-0.032343216 -0.05194657 0.05760046 -0.017546926 -0.0528238 -0.005016352 0.04837612 -0.0413113
0.022640277 0.043615635 -0.04903582 -0.00028059242 -0.031371694 0.021890808 0.03493042 0.027690396
0.007019468 0.041730665 0.032011624 0.0024556266 0.041793812 0.013239691 0.007155246 0.046261974
-0.045073844 0.0076317047 -0.037645455 0.05149138 -0.016719699 0.031168679 0.032821044 -0.032924987
0.029568663 -0.0075037647 0.04058651 -0.01784167 0.024500819 -0.010945695 -0.040848393 -0.056053583
0.03128257 0.04486424 0.011114296 -0.00871111 0.0053575183 0.052953072 0.03793611 0.04451743
0.017231904 0.052302644 0.057027467 -0.019817533 -0.03104394 -0.046566777 -0.029722076 0.049100127
0.05118108 0.054602318 0.011277293 0.025824344 0.015338172 -0.016307915 0.009242611 0.020942546
-0.0041175704 -0.0023679861 0.048159976 -0.032151286 -0.011126649 -0.028885532 0.0460113 0.059812788
-0.03619817 -0.04053557 -0.03424085 -0.024498422 0.04633269 -0.053818334 -0.00593697 0.028150704
-0.005479601 0.04924974 0.03223242 -0.0046028057 0.03366578 -0.046694983 0.00857982 -0.054008145
0.026396614 -0.021255797 -0.021686718 0.05712723 -0.030084893 0.05050466 -0.003982237 0.04094156
-0.032237645 0.038286056 -0.011525094 0.0101781525 0.00945044 0.017418418 0.0113241235 -0.025267974
-0.05421309 -0.021407433 -0.036058825 0.035202082 0.059489932 0.023462974 0.010645468 -0.03201068
-0.030703893 -0.057289626 0.018596822 0.032415517 -0.04664327 -0.008039805 0.013953621 0.05366554
0.0320038 0.033056937 -0.045370743 -0.0011462553 0.035579 -0.051958565 0.02286051 -0.032271292
-0.02872704 0.014091486 0.013622622 -0.017231649 -0.06027273 -0.00095276505 0.02412493 -0.023865085
0.054252096 -0.002845904 -0.017528532 0.046977717 -0.027054166 -0.014864177 0.015367475 0.034700364
0.055493563 0.05301771 -0.045021493 0.03590107 0.017945698 -0.015073922 -0.017960373 -0.027832799
0.04129989 -0.040079214 -0.03368765 -0.015533277 0.026523298 0.051449664 0.060252696 0.025629718
0.004690415 -0.039593272 -0.04564997 0.058848385 0.006094658 -0.0042884797 0.044768568 0.022813443
-0.033828724 -0.023289088 -0.034123227 0.0019525529 0.011268451 0.023695638 -0.03506754 -0.051574502
0.04600988 -0.054505847 0.0026450565 -0.016001398 -0.01837962 0.040072635 -0.04879943 0.043228798
0.03817003 0.027444778 0.02441651 0.028608672 0.025739055 -0.023361936 0.00045037884 0.018615015
00000000: 2c03 11bc 924e 8c3c b454 403b a7cb 863d
00000010: 4a7e 03bc a9a7 2e3d a3a7 4b3d c0e5 cf3c
00000020: 544a cf3c d4d5 55bd c762 2abd 286d 0e3d
00000030: 3c6d 3cbd 20d2 d53c fc97 f83c e029 583d
00000040: db3b 433d 7c9a 0f3d 1b8a 2bbd 2fc3 df3c
00000050: d64e 363d 27b9 a03c 3b86 2cbb 6931 023d
00000060: 7352 ca3c 19dc 333c b0b3 7e3d d2b6 b73c
00000070: 9658 0d3d 5ac8 65bd a566 2fbc d293 23bd
00000080: 72aa 083d 3cb5 cf3b 2ea8 3a3d 50dc 64bc
00000090: 2dc8 413d ee94 baba 454e 0c3d 613a 7dbb
000000a0: e567 ab3b 059f 0fbb 4a38 41bd 4020 863d
000000b0: d9fd 63bd 3a7c 3c3d c53d eb3b 6cdc f63b
000000c0: ea52 e4bc 0004 e33c fcc9 0cbd 0b5a 33bd
000000d0: d060 1a3d bef8 3a3d 7879 e03c 7582 53bd
000000e0: 77d1 4a3d c707 42bd 41ee cbbc 781e 2ebd
000000f0: 0659 b9bc 2717 473d 3ed3 023d a35e f5bc
00000100: 527a 04bd edc5 54bd 76ee 6b3d 92be 8fbc
00000110: c55d 58bd 3660 a4bb 0a26 463d 0a36 29bd
00000120: 1a78 b93c 4fa6 323d c9d9 48bd 7a1c 93b9
00000130: 9b7f 00bd 5a54 b33c 3313 0f3d f8d6 e23c
00000140: 9103 e63b c6ed 2a3d 9f1e 033d 94ee 203b
00000150: fd2f 2b3d 4aeb 583c 8e76 ea3b 327d 3d3d
00000160: 5a9f 38bd 6113 fa3b 1f32 1abd a0e8 523d
00000170: c0f7 88bc 7555 ff3c 5c6f 063d 5adc 06bd
00000180: fb39 f23c 24e2 f5bb 0a3e 263d b228 92bc
00000190: f1b5 c83c 9355 33bc a550 27bd 7198 65bd
000001a0: 2722 003d 91c3 373d bc18 363c 0bb9 0ebc
000001b0: 1f8e af3b 52e5 583d e562 1b3d e957 363d
000001c0: ec29 8d3c 4c3b 563d a295 693d 6158 a2bc
000001d0: dc4f febc cebc 3ebd b67b f3bc 371d 493d
000001e0: 41a3 513d aea6 5f3d 65c4 383c 938d d33c
000001f0: f54c 7b3c 2d98 85bc 526e 173c b48f ab3c
00000200: afec 86bb 3730 1bbb 6543 453d 11b1 03bd
00000210: 8c4c 36bc 5aa1 ecbc 5876 3c3d 41fe 743d
00000220: 8844 14bd a008 26bd 2240 0cbd eab0 c8bc
00000230: 59c7 3d3d 9d70 5cbd ea8a c2bb 4e9c e63c
00000240: 3a8e b3bb 18ba 493d 2406 043d 22d3 96bb
00000250: 21e5 093d 3d43 3fbd 6092 0c3c a537 5dbd
00000260: b63d d83c a320 aebc 58a8 b1bc 3efe 693d
00000270: 9874 f6bc f9dd 4e3d 6d7d 82bb 56b2 273d
00000280: 9f0b 04bd d7d1 1c3d bfd3 3cbc 44c2 263c
00000290: 05d6 1a3c 12b1 8e3c d188 393c c8fe cebc
000002a0: 8c0e 5ebd a45e afbc 6bb2 13bd 0f30 103d
000002b0: b7ab 733d 6c35 c03c 546a 2e3c a11d 03bd
000002c0: bb86 fbbc 87a8 6abd 5d58 983c 22c6 043d
000002d0: 030d 3fbd 63b9 03bc ba9d 643c 66d0 5b3d
000002e0: 6b16 033d b666 073d acd6 39bd f23d 96ba
000002f0: 49bb 113d 81d2 54bd f745 bb3c e72e 04bd
00000300: f854 ebbc fadf 663c 6b31 5f3c 6329 8dbc
00000310: 8ae0 76bd fbc2 79ba a5a1 c53c b680 c3bc
00000320: 7237 5e3d 5982 3abb ff97 8fbc b56b 403d
00000330: b3a0 ddbc e188 73bc ddc7 7b3c f821 0e3d
00000340: 384d 633d 1929 593d 7568 38bd 000d 133d
00000350: db02 933c 9df8 76bc a221 93bc 9c01 e4bc
00000360: 132a 293d 1a2a 24bd 10fc 09bd 497f 7ebc
00000370: 6347 d93c e2bc 523d 88cb 763d 6af5 d13c
00000380: 0eb2 993b 8e2c 22bd 77fb 3abd 010b 713d
00000390: b2b5 c73b 6086 8cbb 3f5f 373d 42e3 ba3c
000003a0: fd8f 0abd c2c8 bebc ccc4 0bbd ceec ff3a
000003b0: 4f9f 383c 5b1d c23c fba2 0fbd c93f 53bd
000003c0: db74 3c3d 8641 5fbd af58 2d3b 5d15 83bc
000003d0: db90 96bc 3423 243d e9e1 47bd ae10 313d
000003e0: 2d58 1c3d dfd3 e03c 2205 c83c bc5c ea3c
000003f0: b6da d23c 8861 bfbc d320 ec39 847e 983c

fc1.bias f4 [256]
-0.056870043 0.028331969 0.015200539 0.020667553 0.016177265 0.02053173 0.0010174934 0.0036855745
-0.00843752 0.05094138 -0.024994455 0.05734767 0.020104785 -0.01493402 0.014296693 -0.02281741
0.012069026 0.014218726 -0.05610567 0.036254235 -0.023882482 -0.00019351317 0.028904937 -0.03613454
-0.044272345 0.02058426 -0.000496527 0.056624923 0.017406745 0.00054635404 0.0008189353 0.03951896
-0.023643883 0.039240696 -0.02267315 0.022438657 0.013980031 -0.01542084 0.030741785 -0.009863043
0.046138022 0.03509715 -0.025627295 0.028404683 -0.05307566 0.055938277 0.05443957 -0.05828097
0.005891077 0.03308511 0.011550217 0.029103043 -0.053452305 0.030122153 0.053695813 -0.024175417
0.04318718 0.053436466 -0.043050755 -0.039504275 0.035292313 0.008390464 -0.05559332 -0.013964397
0.01129762 0.03313177 -0.03030822 -0.038572557 0.0148505485 -0.009276377 0.014163755 -0.003928573
-0.039309066 0.039209977 0.04276691 0.044117343 -0.04416959 0.04782639 0.04901156 -0.052960575
-0.030331096 -0.040791273 -0.023379413 -0.04389596 0.0076776715 -0.054574575 -0.0121448375 0.0101995915
0.024038298 -0.037946645 -0.044108924 -0.033535942 0.010141635 -0.0031424444 -0.022324495 -0.037250448
-0.022060694 -0.037007615 -0.030170785 0.026849292 0.04441392 -0.032768507 0.001562917 0.038356245
0.02425548 -0.01500756 -0.056587987 0.037816193 -0.015839865 -0.012977705 0.018930245 -0.050355073
-0.013850521 0.00035281913 -0.03881376 -0.05300472 0.043559693 0.045245484 -0.0070559713 -0.0334188
0.014196493 -0.03681589 0.019631624 0.02516181 0.013607012 0.018956896 0.047102585 -0.03422401
0.027177872 -0.0024403795 0.0052295285 0.013456438 0.030484425 -0.019593235 -0.03361604 -0.0370741
0.019704238 0.0597828 0.046580393 -0.04041722 0.043629806 0.02037109 0.04002543 0.024446279
-0.0073222197 -0.002447723 0.037020233 0.023549912 0.004843021 -0.03770388 0.033474274 -0.04964622
0.020828594 -0.045251425 -0.031773157 0.009417875 -0.04463204 -0.0057249186 -0.054246005 -0.032219864
-0.052553814 0.028982226 -0.023525637 -0.005274761 0.054420672 0.0030334543 0.04664501 0.05444064
-0.035416875 0.0013641223 -0.047315042 0.032281805 -0.007709951 0.02147921 -0.013411673 -0.023991724
-0.036129303 0.04775894 0.01835913 -0.051399168 -0.032180574 0.002059371 0.040339243 -0.0093969805
0.01263297 0.0038817169 -0.005178547 0.025358723 -0.0012213632 0.0405078 0.0508747 -0.042965632
-0.022358105 -0.030553339 -0.047189217 0.009178739 -0.026712492 -0.049645275 0.04304405 -0.008742988
0.05249314 0.006843492 0.03448905 -0.032298226 -0.05175202 -0.056903098 -0.04929867 0.02111012
0.020343242 0.01996657 0.055301767 0.05755439 0.05591772 -0.011454621 -0.036337074 0.008061393
0.035726793 -0.041237224 -0.029633282 0.046810202 -0.022879582 0.046908807 -0.023752222 -0.013562872
0.056565505 0.010692786 -0.015187782 0.030378632 0.046993833 0.0055260058 -0.0149991615 0.050515838
-0.031050768 0.051699545 0.0074658496 0.0104416665 0.051025983 0.02425539 -0.024619319 0.034601953
-0.029718371 -0.021924827 0.019197216 0.026079144 -0.03896521 -0.04275231 -0.037061483 0.049626872
0.009813575 0.04208286 0.042631213 -0.034498997 0.03337197 0.015167049 -0.005519906 -0.045497745
00000000: 90f0 68bd 7218 e83c ae0b 793c 004f a93c
00000010: 2f86 843c 2932 a83c 6a5d 853a ae89 713b
00000020: 863d 0abc e9a7 503d 2cc1 ccbc 64e5 6a3d
00000030: cab2 a43c d2ad 74bc ad3c 6a3c 94eb babc
00000040: 2abd 453c a9f5 683c 0fcf 65bd 527f 143d
00000050: 32a5 c3bc cce9 4ab9 0cca ec3c d001 14bd
00000060: eb56 35bd 52a0 a83c 5d29 02ba 89ef 673d
00000070: 9798 8e3c 3339 0f3a d1ad 563a a2de 213d
00000080: d1b0 c1bc daba 203d 0bbd b9bc 46d1 b73c
00000090: 800c 653c b1a7 7cbc 32d6 fb3c 9a98 21bc
000000a0: 39fb 3c3d 07c2 0f3d 55f0 d1bc f0b0 e83c
000000b0: dd65 59bd 891f 653d 07fc 5e3d 07b8 6ebd
000000c0: f009 c13b 4184 073d 1f3d 3d3c 8169 ee3c
000000d0: cef0 5abd bcc2 f63c 24f0 5b3d 860b c6bc
000000e0: 0ae5 303d 32e0 5a3d fd55 30bd 3ccf 21bd
000000f0: ac8e 103d 2878 093c d2b5 63bd edca 64bc
00000100: a719 393c 2eb5 073d f248 f8bc 42fe 1dbd
00000110: b74f 733c f2fb 17bc 180f 683c 42bb 80bb
00000120: 8b02 21bd a49a 203d 5b2c 2f3d 63b4 343d
00000130: 2ceb 34bd 9be5 433d 58c0 483d 30ed 58bd
00000140: eb78 f8bc c014 27bd 2f86 bfbc 40cc 33bd
00000150: fa94 fb3b 9789 5fbd 24fb 46bc 301c 273c
00000160: f7eb c43c f16d 1bbd 8fab 34bd fc5c 09bd
00000170: 1a29 263c 78f1 4dbb dce1 b6bc ed93 18bd
00000180: a1b8 b4bc 4c95 17bd b928 f7bc 0cf3 db3c
00000190: 5feb 353d 4538 06bd cbda cc3a 701b 1d3d
000001a0: 6eb3 c63c 45e2 75bc cec8 67bd 27e5 1a3d
000001b0: 9bc2 81bc 71a0 54bc 9a13 9b3c 1f41 4ebd
000001c0: 4ced 62bc 95fa b839 2dfb 1ebd 7a1b 59bd
000001d0: a66b 323d 5453 393d c735 e7bb 27e2 08bd
000001e0: 6898 683c 42cc 16bd 80d2 a03c 2420 ce3c
000001f0: f2ef 5e3c 7e4b 9b3c a4ee 403d 7a2e 0cbd
00000200: 21a4 de3c c6ee 1fbb 775c ab3b 6478 5c3c
00000210: 79ba f93c fe81 a0bc f9b0 09bd 03db 17bd
00000220: c86a a13c cfde 743d 15cb 3e3d 878c 25bd
00000230: 2bb5 323d 46e1 a63c b5f1 233d 9043 c83c
00000240: 3bef efbb fa69 20bb 87a2 173d bfeb c03c
00000250: 34b2 9e3b 626f 1abd 521c 093d d659 4bbd
00000260: baa0 aa3c 8f59 39bd 9224 02bd 6e4d 1a3c
00000270: 16d0 36bd 1998 bbbb 0f31 5ebd faf8 03bd
00000280: ab42 57bd 226c ed3c d6b8 c0bc e7d7 acbb
00000290: 36e8 5e3d ebcc 463b d70e 3f3d 26fd 5e3d
000002a0: 4911 11bd 59cc b23a 6bcd 41bd ed39 043d
000002b0: c2a3 fcbb 2bf5 af3c a2bc 5bbc 4b8a c4bc
000002c0: 52fc 13bd e19e 433d e365 963c ef87 52bd
000002d0: c7cf 03bd 83f6 063b c33a 253d cbf5 19bc
000002e0: 84fa 4e3c 6764 7e3b cdb0 a9bb 19bd cf3c
000002f0: 2616 a0ba 82eb 253d fd61 503d bbfc 2fbd
00000300: 5828 b7bc ff4a fabc 7b49 41bd 6c62 163c
00000310: 28d4 dabc d858 4bbd f54e 303d c03e 0fbc
00000320: 0c03 573d 5f3f e03b 6444 0d3d 254b 04bd
00000330: edf9 53bd 3913 69bd 67ed 49bd 21ef ac3c
00000340: dfa6 a63c ef90 a33c 1b84 623d 27be 6b3d
00000350: fb09 653d 2aac 3bbc 2fd6 14bd ef13 043c
00000360: 4256 123d 5de8 28bd 7fc1 f2bc 0ebc 3f3d
00000370: f66d bbbc 7323 403d 0594 c2bc cf36 5ebc
00000380: 3bb1 673d cc30 2f3c 2dd6 78bc 9cdc f83c
00000390: 9b7c 403d 7f13 b53b 0bbf 75bc b2e9 4e3d
000003a0: 2e5e febc e7c2 533d 16a4 f43b 8613 2b3c
000003b0: 9f00 513d 3db3 c63c 74ae c9bc c7ba 0d3d
000003c0: f173 f3bc b29b b3bc 7b43 9d3c eea3 d53c
000003d0: fc99 1fbd 0c1d 2fbd c8cd 17bd 8c45 4b3d
000003e0: 1ec9 203c 145f 2c3d 119e 2e3d d24e 0dbd
000003f0: 0cb1 083d 377f 783c 54e0 b4bb d85b 3abd

bn1.weight f4 [256]
1.0208814 1.0062591 1.0313867 1.0299815 1.0250689 1.020071 1.0338753 1.016923
1.0194535 1.0369185 1.0183395 1.0256023 1.0288613 1.0053382 1.0252417 1.0260032
1.0174745 1.0201037 1.0191152 1.0211535 1.019463 1.0253034 1.0422047 1.0284264
1.0252906 1.0339931 1.0198866 1.024454 1.0291098 1.0359216 1.0266147 1.0217179
1.0141975 1.0192373 1.0211964 1.0242993 1.0128711 1.0279965 1.010959 1.027521
1.0240566 1.0213139 1.0227972 1.0250455 1.0225973 1.0066469 1.0302324 1.024037
1.0349818 1.0283128 1.0248722 1.0082215 1.0298486 1.0325296 0.99577796 1.0226659
1.0217173 1.0085316 1.0217271 1.021888 1.0166278 1.0265257 1.0226989 1.0177957
1.0301108 1.0289421 1.0131269 1.0172832 1.0169786 1.0217469 1.0238538 1.0097858
1.0258137 1.0082917 1.0249838 1.0064497 1.0199528 1.0398827 1.0218401 1.023209
1.0005782 1.0267011 1.0197959 1.0282186 1.0262955 1.0245303 1.0345769 1.0220071
1.0187925 1.0161992 1.0091505 1.0364988 1.0110657 1.0335252 1.0082494 1.0175989
1.0236596 1.0163277 1.0241746 1.0206347 1.0244626 1.029217 0.9984399 1.0236772
1.0269544 1.0392416 1.028582 1.0161598 1.0102694 1.0089347 1.0104578 1.0202839
1.0153476 1.0153438 1.0145586 1.0390706 1.021301 1.0118324 1.0342716 1.0228662
1.0179584 1.0274786 1.0160769 1.0213848 1.0395328 1.0189695 1.0148687 1.0218897
1.0136229 1.0336454 1.0282923 1.0258219 1.0354768 1.0211492 1.0084603 1.025179
1.024363 1.0355183 1.0187817 1.0161177 1.0249603 1.0229299 1.0215853 1.018817
1.0155444 1.0285279 1.0338111 1.0138074 1.0149497 1.0332776 1.0315695 1.0294486
1.0141937 1.0157241 1.0177796 1.0058758 1.0227755 1.0066726 1.0380865 1.0326647
1.018136 1.0325733 1.0190654 1.0173672 1.0316888 1.0383471 1.0170729 1.0164084
1.0100389 1.0388783 1.0307139 1.036754 1.0241756 1.0176136 1.041453 1.0146853
1.0063955 1.0100714 1.0362402 1.0252304 1.0321031 1.0111127 1.0335394 1.0178196
1.0295781 1.0269738 1.0261815 1.0199555 1.0337881 1.0164528 1.0222821 1.0187205
1.012753 1.0040272 1.0269054 1.032152 1.0117205 1.0231986 1.0262517 1.049866
1.0246841 1.0269436 1.0223219 1.0193595 1.021849 1.024103 1.0246294 1.0183381
1.0213691 1.0217835 1.0197936 1.0270557 1.023896 1.024991 1.0085211 1.0074692
1.0207255 1.0200998 1.0251874 1.0133548 1.0235465 1.020131 1.0264603 1.0136983
1.0210112 1.0265452 1.0287989 1.0191232 1.0220113 1.0312942 1.0211446 1.017486
1.0263902 1.0146075 1.0225096 1.0212576 1.0228446 1.0143539 1.0301657 1.0114832
1.018916 1.0301031 1.027639 1.0317261 1.0128947 1.017779 1.0126951 1.0228796
1.0009507 1.0216808 1.0285901 1.0268601 1.0289541 1.0439931 1.0208459 1.0163093
00000000: 3eac 823f 19cd 803f 7b04 843f 6fd6 833f
00000010: 7535 833f b091 823f 0756 843f 882a 823f
00000020: 747d 823f bfb9 843f f358 823f f046 833f
00000030: bab1 833f ecae 803f 1f3b 833f 1354 833f
00000040: 9b3c 823f c292 823f 5e72 823f 28b5 823f
00000050: c37d 823f 243d 833f f766 853f 7aa3 833f
00000060: b93c 833f e359 843f a58b 823f 4f21 833f
00000070: dfb9 833f 1499 843f 1c68 833f a7c7 823f
00000080: 39d1 813f 5e76 823f 90b6 823f 3d1c 833f
00000090: c3a5 813f 6495 833f 1b67 813f cf85 833f
000000a0: 4914 833f 6aba 823f 05eb 823f b134 833f
000000b0: 78e4 823f ced9 803f a8de 833f a513 833f
000000c0: 497a 843f c19f 833f 032f 833f 670d 813f
000000d0: 14d2 833f ee29 843f 4eeb 7e3f b7e6 823f
000000e0: a2c7 823f 9017 813f f4c7 823f 3acd 823f
000000f0: dc20 823f 3265 833f cce7 823f 2147 823f
00000100: acda 833f 60b4 833f 24ae 813f 5636 823f
00000110: 5b2c 823f 9ac8 823f a40d 833f a940 813f
00000120: dd4d 833f b40f 813f ab32 833f 58d3 803f
00000130: d08d 823f e01a 853f a8cb 823f 83f8 823f
00000140: f212 803f f16a 833f ac88 823f ab9c 833f
00000150: a75d 833f cf23 833f 046d 843f 21d1 823f
00000160: cb67 823f d112 823f d82b 813f feab 843f
00000170: 9a6a 813f 8e4a 843f 510e 813f ae40 823f
00000180: 4707 833f 0717 823f 2718 833f 28a4 823f
00000190: 9721 833f 62bd 833f c299 7f3f db07 833f
000001a0: 3e73 833f de05 853f 93a8 833f 8611 823f
000001b0: 8250 813f c624 813f ae56 813f aa98 823f
000001c0: e9f6 813f c9f6 813f 0edd 813f 4400 853f
000001d0: feb9 823f b983 813f 0363 843f 48ed 823f
000001e0: 764c 823f 6b84 833f cf0e 823f bdbc 823f
000001f0: 690f 853f 986d 823f 38e7 813f 48cd 823f
00000200: 65be 813f 7e4e 843f 159f 833f 224e 833f
00000210: 818a 843f 04b5 823f 3a15 813f 1139 833f
00000220: 541e 833f dd8b 843f 7067 823f 2510 823f
00000230: e631 833f 5eef 823f 4fc3 823f 9868 823f
00000240: 5cfd 813f cda6 833f ec53 843f 71c4 813f
00000250: dfe9 813f 7142 843f 780a 843f f9c4 833f
00000260: 19d1 813f 3f03 823f 9a46 823f 8ac0 803f
00000270: 4fea 823f a6da 803f 05e0 843f 5b2e 843f
00000280: 4852 823f 5d2b 843f bc70 823f 1739 823f
00000290: 610e 843f 8fe8 843f 722f 823f ac19 823f
000002a0: f448 813f f7f9 843f 6fee 833f 5bb4 843f
000002b0: 3018 833f 2a41 823f 554e 853f 35e1 813f
000002c0: 91d1 803f 054a 813f 85a3 843f c03a 833f
000002d0: f41b 843f 246c 813f 054b 843f ea47 823f
000002e0: 37c9 833f e173 833f ea59 833f e78d 823f
000002f0: 2b53 843f 201b 823f 24da 823f 6f65 823f
00000300: e4a1 813f f783 803f a371 833f 8f1d 843f
00000310: 0f80 813f 2cf8 823f 375c 833f 0262 863f
00000320: d928 833f e372 833f 72db 823f 5f7a 823f
00000330: f3cb 823f cf15 833f 0e27 833f e758 823f
00000340: 39bc 823f cdc9 823f 9988 823f 9076 833f
00000350: 060f 833f e832 833f 3817 813f c0f4 803f
00000360: 22a7 823f a192 823f 5739 833f 9cb5 813f
00000370: 9203 833f a793 823f 0d63 833f dec0 813f
00000380: 7fb0 823f d565 833f afaf 833f a172 823f
00000390: 44d1 823f 7301 843f deb4 823f fb3c 823f
000003a0: c160 833f a9de 813f 98e1 823f 92b8 823f
000003b0: 92ec 823f 59d6 813f 78dc 833f 4878 813f
000003c0: d76b 823f 6bda 833f ad89 833f 9a0f 843f
000003d0: 89a6 813f 9546 823f fe9f 813f b8ed 823f
000003e0: 271f 803f 70c6 823f d7a8 833f 2770 833f
000003f0: c5b4 833f 91a1 853f 14ab 823f 6c16 823f

bn1.bias f4 [256]
0.014759424 0.00594914 0.020721013 0.022157269 0.017229555 0.010422845 0.01876715 0.012809277
0.015060299 0.020853242 0.010401943 0.012679048 0.021402864 0.0060664676 0.021921668 0.022527333
0.0072613573 0.009433655 0.0121561 0.010397387 0.012809515 0.008771454 0.03001031 0.013770499
0.019570652 0.024572827 0.01260464 0.01884047 0.012822279 0.02844365 0.018501062 0.01990096
3.1527423e-05 0.014215103 0.022595426 0.018026968 0.016458882 0.02448935 0.010211662 0.02259709
0.022091778 0.009339977 0.012761231 0.024385443 0.015467213 0.00856212 0.012422346 0.020963961
0.01026504 0.020959815 0.014116501 0.00025056954 0.017886793 0.025215875 0.0009125825 0.013167943
0.0072585605 0.0026014985 0.022473693 0.018270744 0.014238033 0.0151530355 0.017013721 0.022788439
0.023889797 0.014490729 0.013598296 0.011528145 0.014761045 0.02622413 0.015039708 0.007630025
0.018611442 0.008118435 0.021196567 -0.000565403 0.01340328 0.028640233 0.015153991 0.02291677
-0.00862217 0.013655098 0.018154342 0.010504081 0.011743553 0.021689465 0.014181649 0.023259869
0.016682524 0.01697202 0.007025174 0.028069494 9.887805e-05 0.026656764 0.0024143092 0.0065183416
0.021764873 0.020127574 0.020168522 0.015960738 0.01387033 0.022067996 -0.011455696 0.01832044
0.01487687 0.020971974 0.007925149 0.0043317033 0.0065653366 0.008251148 0.00931408 0.013439583
0.018328607 0.0040275506 0.012920661 0.021272255 0.0055704527 0.0046358765 0.014391381 0.0094471285
0.0169194 0.019955922 -0.001480681 0.010543975 0.030063106 0.011027192 0.01132309 0.017299928
0.022014841 0.02322515 0.016881706 0.013034711 0.017561868 0.009603229 0.009260195 0.012825168
0.011887409 0.019357158 0.01176326 0.012352883 0.020104129 0.009067355 0.017332964 0.010156692
0.0013624986 0.018129498 0.022470942 0.015075225 0.00019442156 0.018103488 0.023317335 0.025431652
0.008618083 0.013725453 0.00826254 -0.004050976 0.020586528 0.0030431089 0.020107541 0.023357214
0.004825409 0.016489571 0.013821164 0.017601537 0.0077133784 0.022291556 0.022395425 0.016550459
0.013942373 0.03287473 0.024330292 0.018377405 0.019346876 0.012943696 0.02772821 0.011367652
0.0006179293 0.0041565313 0.02281139 0.022583053 0.008671566 0.008130711 0.018458458 0.02159298
0.014184887 0.019609448 0.021648614 0.022392364 0.022731513 0.0035045338 0.017283546 0.011846562
0.011318859 0.009323271 0.023210453 0.020590749 0.0051680882 0.006824568 0.026679043 0.033081513
0.018488474 0.027432047 0.017459577 0.012591051 0.0122981295 0.017819988 0.016498193 0.007138491
0.011311607 0.013056338 0.011516782 0.019994583 0.021803444 0.020230696 -0.001605911 0.008905282
0.022059187 0.01665191 0.01361541 0.003502567 0.006454777 0.017131217 0.016475668 0.011216335
0.009989257 0.018656421 0.024338514 0.013610123 0.012965712 0.02647772 0.0020376528 0.005422074
-0.0012991062 0.007966717 0.016304454 0.012590274 0.018675743 0.01075889 0.014425896 0.0015649737
0.009509678 0.014358461 0.01714976 0.025493821 0.0038486922 0.010065516 0.016048152 0.012990168
0.00038306002 0.0025982722 0.00902437 0.018540673 0.016520197 0.023837168 0.017727856 0.014005981
00000000: 83d1 713c 01f1 c23b 1dbf a93c 2983 b53c
00000010: ff24 8d3c 95c4 2a3c 91bd 993c 00de 513c
00000020: 79bf 763c 6bd4 aa3c e96c 2a3c c8bb 4f3c
00000030: 0f55 af3c 38c9 c63b 1295 b33c 3e8b b83c
00000040: aef0 ed3b 9e8f 1a3c 612a 473c cd59 2a3c
00000050: 00df 513c 25b6 0f3c 2ed8 f53c a99d 613c
00000060: a252 a03c f44c c93c b183 4e3c 5457 9a3c
00000070: 8914 523c a802 e93c 8a8f 973c 5707 a33c
00000080: 503c 0438 77e6 683c 0b1a b93c 4bad 933c
00000090: c7d4 863c e49d c83c d14e 273c 881d b93c
000000a0: d1f9 b43c b406 193c 7b14 513c fbc3 c73c
000000b0: 316a 7d3c 2248 0c3c 1887 4b3c 9dbc ab3c
000000c0: b32e 283c ebb3 ab3c e648 673c e05e 8339
000000d0: 5387 923c 8691 ce3c 603a 6f3a 5bbe 573c
000000e0: 38d9 ed3b e77d 2a3b c01a b83c 87ac 953c
000000f0: a446 693c 7044 783c 5c60 8b3c d2ae ba3c
00000100: 89b4 c33c 866a 6d3c 63cb 5e3c 8be0 3c3c
00000110: 4fd8 713c fdd3 d63c 1c69 763c 4a05 fa3b
00000120: 0677 983c 2f03 053c 6ca4 ad3c 8e37 14ba
00000130: 6e99 5b3c ec9e ea3c 7248 783c f3bb bb3c
00000140: 0144 0dbc a2b9 5f3c 6ab8 943c 4f19 2c3c
00000150: 0868 403c 1bae b13c 265a 683c 7b8b be3c
00000160: caa9 883c e808 8b3c 6e33 e63b fff1 e53c
00000170: c05c cf38 495f da3c 6339 1e3b d097 d53b
00000180: 3f4c b23c 95e2 a43c 7538 a53c 18c0 823c
00000190: 6140 633c f1c7 b43c acb0 3bbc bf14 963c
000001a0: 1ebe 733c 6bcd ab3c 7cd8 013c f6f0 8d3b
000001b0: 0922 d73b d32f 073c 159a 183c b231 5c3c
000001c0: e025 963c 8bf9 833b 2eb1 533c 2743 ae3c
000001d0: 5888 b63b 8de8 973b d4c9 6b3c 21c8 1a3c
000001e0: 8e9a 8a3c 9a7a a33c 6913 c2ba a3c0 2c3c
000001f0: e746 f63c 65ab 343c 7b84 393c 94b8 8d3c
00000200: 7858 b43c ab42 be3c 814b 8a3c 8a8f 553c
00000210: e8dd 8f3c dd56 1d3c 13b8 173c a720 523c
00000220: 68c3 423c e792 9e3c b0ba 403c bf63 4a3c
00000230: 6ab1 a43c 3e8f 143c dcfd 8d3c 4168 263c
00000240: de95 b23a 5084 943c fb14 b83c 14fe 763c
00000250: a4dd 4b39 c44d 943c ff03 bf3c 0a56 d03c
00000260: dc32 0d3c b9e0 603c 9b5f 073c 0dbe 84bb
00000270: 14a5 a83c e56e 473b 92b8 a43c a157 bf3c
00000280: 771e 9e3b 2315 873c 2a72 623c 1931 903c
00000290: 82c0 fc3b c89c b63c 9c76 b73c d494 873c
000002a0: 8d6e 643c a7a7 063d 5250 c73c 368c 963c
000002b0: 577d 9e3c cc11 543c 4526 e33c 633f 3a3c
000002c0: 89fc 213a 8333 883b f4de ba3c 1800 b93c
000002d0: 2f13 0e3c ac36 053c 3136 973c c3e3 b03c
000002e0: ba67 683c fea3 a03c 6f58 b13c 3170 b73c
000002f0: 7037 ba3c 52ac 653b 3996 8d3c 1518 423c
00000300: bc72 393c a2c0 183c d923 be3c eead a83c
00000310: 1159 a93b a0a0 df3b 028e da3c 7b80 073d
00000320: 2475 973c 2cb9 e03c 6307 8f3c b24a 4e3c
00000330: 187e 493c 39fb 913c 3827 873c 01ea e93b
00000340: 5254 393c 40ea 553c e3b0 3c3c aecb a33c
00000350: 239d b23c d8ba a53c 6e7d d2ba 76e7 113c
00000360: 78b5 b43c 9669 883c 2b13 5f3c 538b 653b
00000370: 9882 d33b c456 8c3c fbf7 863c b8c4 373c
00000380: fba9 233c 5ad5 983c 9061 c73c fefc 5e3c
00000390: 236e 543c cee7 d83c 248a 053b a7ab b13b
000003a0: c546 aaba d586 023c eb90 853c 7047 4e3c
000003b0: dffd 983c 0e46 303c 985a 6c3c ce1f cd3a
000003c0: 7bce 1b3c c03f 6b3c a77d 8c3c 6bd8 d03c
000003d0: 573a 7c3b d6e9 243c 6a77 833c b7d4 543c
000003e0: 72d5 c839 c647 2a3b f4da 133c 9ce2 973c
000003f0: 5d55 873c 2a46 c33c 023a 913c 5879 653c

bn1.running_mean f4 [256]
-0.02795554 0.021256132 -0.005335869 0.019838195 0.046415098 0.03217004 -0.050257176 0.009601576
0.020046534 0.07296587 -0.026721878 0.049974535 0.0006475277 -0.01038026 0.026166761 0.0070691966
0.004436035 0.022741156 0.0042888573 0.095715076 -0.025435362 0.028398369 0.036983777 -0.07715508
-0.036977474 0.013081039 0.024431508 0.027401036 0.022642592 -0.00031982682 -0.022217546 0.0365594
-0.003944497 0.0330585 -0.04035082 0.008177626 0.013209063 -0.023542197 -0.036775883 -0.015644222
0.018561441 0.026062928 -0.052897792 0.057268225 -0.03677925 0.0743013 0.06433331 -0.11095537
-0.019202324 0.0041269865 0.018327724 0.013993762 -0.04967825 0.015906034 0.015405068 -0.01593454
0.019227184 0.050638247 -0.04899175 -0.05199977 0.026909815 0.038003556 -0.06614436 0.0013799205
-0.010640165 0.013125676 -0.023794489 -0.03810909 0.062447708 -0.05705926 -0.020701274 0.015021473
-0.030424107 0.037294462 0.048229974 0.067621745 -0.06555002 0.037144613 0.04840215 -0.025549844
-0.042334188 -0.028361076 -0.061512303 -0.056138333 -0.046629954 -0.09229524 0.033125468 0.0107145505
0.056961715 -0.01776576 -0.05101743 -0.049507383 0.009942525 0.016851638 -0.07394196 -0.055287365
-0.048057023 -0.016593538 -0.049811237 0.039226763 0.077687055 -0.06305848 0.006710987 0.03320681
0.023392264 0.020141577 -0.043086577 0.035406604 -0.04086621 -0.009357228 0.013095865 -0.050242558
-0.012007932 0.018143103 -0.10593119 -0.09702288 0.053064313 0.055814493 -0.009936297 -0.045366667
0.033147894 -0.05758205 0.012476392 -0.016600223 0.03444674 0.048362307 0.06537754 -0.05793573
0.034733158 -0.054881405 0.009361852 0.04672916 0.061220538 -0.0009833908 -0.047269274 -0.0060966206
0.0066638817 0.084451474 0.082527466 -0.03500373 0.057738084 0.014788476 -0.026280094 0.028932542
-0.014311683 -0.008906871 0.05728834 0.04971317 0.007889244 -0.006647862 0.021812988 -0.07595006
0.015696375 -0.047944162 -0.031272877 -0.043915503 -0.015461604 0.03581448 -0.062671214 -0.03494559
-0.05493986 0.036906827 -0.018836133 -0.023375157 0.037959117 -0.03902638 0.058333363 0.094711415
-0.027539834 -0.027581235 -0.046428133 0.029979037 0.010493011 -0.014317118 -0.026850492 -0.036371984
-0.073496036 0.08368384 -0.0014392235 -0.08919597 -0.017840825 -0.017926263 0.003965277 0.0009648305
0.027441166 0.007362986 -0.024800899 0.035987116 0.0010714746 0.028262582 0.017173797 -0.03658757
-0.08321132 -0.016231088 -0.038219564 0.0008601146 -0.055506364 -0.07242901 0.06681237 0.010778663
0.080628686 -0.029046563 0.04800451 -0.03555824 -0.074479274 -0.06442682 -0.06750528 0.0010816872
0.027857544 -0.010910492 0.09337843 0.053773902 0.077452414 -0.031075299 -0.03942066 0.029628709
0.06691021 -0.03871435 -0.050752282 0.033902343 -0.008098929 0.030611537 -0.0017775914 -0.012140667
0.081072226 -0.021759093 9.221642e-05 0.036257822 0.01825789 0.019414729 0.0018691442 0.117425665
-0.01947137 0.02596113 -0.012397265 0.02005406 0.03751428 0.040258557 -0.032489512 0.071217865
-0.049992852 -0.0044464287 0.05890971 0.017519044 -0.042608015 -0.027867956 -0.007248058 -0.0056022936
-0.011230691 0.06568106 0.018033983 -0.038251217 -0.0041271914 0.02913375 -0.015080039 -0.043381404
00000000: 0403 e5bc 5721 ae3c 83d8 aebb b683 a23c
00000010: c21d 3e3d bbc4 033d 78da 4dbd ee4f 1d3c
00000020: a138 a43c 216f 953d d7e7 dabc 19b2 4c3d
00000030: d9be 293a f711 2abc ad5b d63c b8a4 e73b
00000040: 295c 913b a94b ba3c 8b89 8c3b 4406 c43d
00000050: d25d d0bc b2a3 e83c 4d7c 173d 7c03 9ebd
00000060: b175 17bd db51 563c 9624 c83c 2378 e03c
00000070: f57c b93c 6eae a7b9 9201 b6bc 4fbf 153d
00000080: d740 81bb 5a68 073d e746 25bd 73fb 053c
00000090: d36a 583c 91db c0bc 4fa2 16bd 5028 80bc
000000a0: 2a0e 983c ec81 d53c 5bab 58bd 1692 6a3d
000000b0: d7a5 16bd 482b 983d 2fc1 833d 923c e3bd
000000c0: 314e 9dbc ac3b 873b 0624 963c 1846 653c
000000d0: 6c7b 4bbd 5f4d 823c 8a65 7c3c 2789 82bc
000000e0: 5482 9d3c 0d6a 4f3d 93ab 48bd b6fd 54bd
000000f0: f971 dc3c 9ea9 1b3d b276 87bd 73de b43a
00000100: 1654 2ebc 130d 573c a9ec c2bc 4718 1cbd
00000110: 2bc9 7f3d f8b6 69bd b895 a9bc a01c 763c
00000120: fa3b f9bc 14c2 183d cb8c 453d 457d 8a3d
00000130: 173f 86bd f324 183d 5541 463d e84d d1bc
00000140: 9d66 2dbd 7d55 e8bc 53f4 7bbd 4ff1 65bd
00000150: 0dff 3ebd 4905 bdbd 92ae 073d 158c 2f3c
00000160: b050 693d 8089 91bc a7f7 50bd 41c8 4abd
00000170: f9e5 223c 720c 8a3c e26e 97bd 0175 62bd
00000180: 71d7 44bd 2cef 87bc de06 4cbd 3eac 203d
00000190: 641a 9f3d ce24 81bd d7e7 db3b dd03 083d
000001a0: 22a1 bf3c f3ff a43c 8d7b 30bd 8406 113d
000001b0: 5463 27bd 0f4f 19bc 0a90 563c 24cb 4dbd
000001c0: ebbc 44bc d8a0 943c 74f2 d8bd efb3 c6bd
000001d0: f759 593d bd9d 643d dacb 22bc 66d2 39bd
000001e0: 16c6 073d 28db 6bbd c869 4c3c 31fd 87bc
000001f0: 0618 0d3d 8e17 463d a9e4 853d 044e 6dbd
00000200: 5b44 0e3d 53cb 60bd 7462 193c 1367 3f3d
00000210: 63c2 7a3d 1fe5 80ba 6d9d 41bd 29c6 c7bb
00000220: b15c da3b e5f4 ac3d 2904 a93d 1260 0fbd
00000230: c57e 6c3d 5d4b 723c 5a49 d7bc f003 ed3c
00000240: 8d7b 6abc 20ee 11bc 2ea7 6a3d 09a0 4b3d
00000250: e341 013c 4fd6 d9bb 27b1 b23c b48b 9bbd
00000260: af95 803c 1961 44bd fd17 00bd bee0 33bd
00000270: ab52 7dbc 34b2 123d c459 80bd 1b23 0fbd
00000280: 9e08 61bd 9d2b 173d 3c4e 9abc 427d bfbc
00000290: 057b 1b3d 20da 1fbd f7ee 6e3d 0ff8 c13d
000002a0: 389b e1bc 0bf2 e1bc 6d2b 3ebd 9996 f53c
000002b0: e1ea 2b3c 5892 6abc 90f5 dbbc cafa 14bd
000002c0: 1785 96bd 6f62 ab3d 54a4 bcba 60ac b6bd
000002d0: ec26 92bc 19da 92bc 28ef 813b aeec 7c3a
000002e0: 4ccc e03c 3445 f13b 412b cbbc 3a67 133d
000002f0: b970 8c3a ee86 e73c 10b0 8c3c d9dc 15bd
00000300: b26a aabd 0ff7 84bc 1e8c 1cbd 5079 613a
00000310: a45a 63bd a955 94bd edd4 883d fd98 303c
00000320: a720 a53d 0ff3 edbc 61a0 443d 84a5 11bd
00000330: 9788 98bd 35f2 83bd 3540 8abd 66c7 8d3a
00000340: 8135 e43c ecc1 32bc 313d bf3d 0642 5c3d
00000350: 5f9f 9e3d a091 febc 8f77 21bd e8b7 f23c
00000360: 3808 893d f092 1ebd a0e1 4fbd 2fdd 0a3d
00000370: 5fb1 04bc 0cc5 fa3c 12fe e8ba a6e9 46bc
00000380: 3209 a63d 2040 b2bc 5064 c138 1583 143d
00000390: 9291 953c a30b 9f3c 12fe f43a de7c f03d
000003a0: 6c82 9fbc 70ac d43c e61d 4bbc 6948 a43c
000003b0: 93a8 193d 28e6 243d b913 05bd acda 913d
000003c0: 4ec5 4cbd 59b3 91bb 4f4b 713d 1984 8f3c
000003d0: be85 2ebd 574b e4bc 1e81 edbb 7293 b7bb
000003e0: ef00 38bc cb83 863d 01bc 933c 4fad 1cbd
000003f0: 643d 87bb e7a9 ee3c 4512 77bc b3b0 31bd

bn1.running_var f4 [256]
0.0007511545 0.00088467455 0.00071755965 0.0007923629 0.00074533216 0.0007979849 0.0007062241 0.00072984415
0.0009390974 0.0009570737 0.00093119795 0.000777278 0.0005959058 0.0012435707 0.0010028823 0.00067984394
0.00074792246 0.0008842345 0.0009887122 0.0008616342 0.00097471155 0.0012117932 0.0006888756 0.0007580715
0.00072827534 0.0010059263 0.0014664575 0.00088528846 0.00059055886 0.00089189946 0.0007090776 0.0018819241
0.0009173813 0.0008870974 0.0015844632 0.0011078883 0.000832073 0.0009520057 0.0013865574 0.0012114001
0.0008147301 0.0007592057 0.00088604895 0.0008032915 0.0009367425 0.0009124357 0.00060113973 0.00102608
0.00070386543 0.0008818766 0.0009351815 0.0006673593 0.00065983145 0.00084408955 0.0015035339 0.0008172605
0.00067715906 0.0009871635 0.0012809451 0.0011880196 0.0007793172 0.0007331341 0.00089923193 0.0008196706
0.00064131955 0.00090890593 0.0008043949 0.0007872747 0.0005988334 0.0012482564 0.0006704182 0.0010245166
0.0010091474 0.0010679333 0.0009770981 0.00081079913 0.000982009 0.0009398924 0.0011553253 0.0013096916
0.000742911 0.00105617 0.0008876275 0.00069240393 0.0007242935 0.0012319783 0.00070483855 0.0007685231
0.0013118181 0.001001276 0.0013474649 0.0008902733 0.0010714787 0.0010176348 0.00069163257 0.0009498122
0.0015266075 0.001753758 0.00063575915 0.0012325124 0.000549648 0.001324644 0.0010215124 0.0011654608
0.00088042853 0.0009104184 0.0008228154 0.000885149 0.00082139764 0.0007986939 0.0006455009 0.0010306889
0.00087495055 0.00083985133 0.0012846033 0.00085418305 0.0007852904 0.00088574475 0.0005505268 0.0012752245
0.0011226404 0.00070271344 0.0008713717 0.0008128663 0.0009137009 0.0009412899 0.0009303499 0.0012621561
0.0008821481 0.0008794931 0.0011143042 0.0011078822 0.00060577935 0.0010249424 0.0007566029 0.00071238243
0.0009768812 0.0005264336 0.00079139747 0.0010756231 0.0008050623 0.0006033198 0.001138246 0.00074464706
0.00085869373 0.00096519035 0.0005921881 0.00081836653 0.00068144774 0.00094989693 0.00087314215 0.00088953174
0.001434598 0.0013825885 0.0006956304 0.0012290337 0.0015648357 0.00072080904 0.0005710419 0.00075640343
0.0009767846 0.0006080241 0.00096315733 0.0008936403 0.0007035657 0.00092998036 0.0008209869 0.00076512917
0.00090611906 0.0010559675 0.00076356926 0.0009093704 0.0006998205 0.0008783973 0.0009499622 0.00109197
0.00087510765 0.0010042177 0.00078166457 0.0007727719 0.00048751995 0.0012169641 0.0006240005 0.0009426157
0.00061116467 0.0010620996 0.0008201714 0.0012489441 0.0008892237 0.00085317576 0.0014203798 0.0015934546
0.00086694205 0.0011267407 0.0006937578 0.0006638044 0.0011693541 0.000823056 0.0008685426 0.0008303844
0.0007384609 0.001083827 0.0010653165 0.00068565685 0.000684711 0.0009228691 0.0007040466 0.00090110116
0.0011755915 0.0008619943 0.0009283458 0.0010083125 0.0010946692 0.00066285534 0.0006968736 0.000629548
0.0009457043 0.0011197956 0.0008142755 0.0009402669 0.0008283716 0.0012071173 0.00096784544 0.0010343089
0.001017857 0.0008768882 0.00092686195 0.00080121815 0.0010247256 0.00082717685 0.0008847943 0.0009192318
0.00074032135 0.0010534447 0.0008690307 0.0010417008 0.00095075206 0.00088770053 0.0007409633 0.00093775016
0.0008200665 0.0008343201 0.00096803345 0.0006769863 0.0010915989 0.0010432454 0.0010025763 0.0006529751
0.001071317 0.0006798157 0.00067456806 0.00078575464 0.0014156696 0.0007007872 0.0016413035 0.0017711858
00000000: 20e9 443a 81e9 673a 9d1a 3c3a 93b6 4f3a
00000010: 6562 433a dc2f 513a e621 393a 0353 3f3a
00000020: c22d 763a 21e4 7a3a a31b 743a 3ec2 4b3a
00000030: 9036 1c3a 4fff a23a 2573 833a 8e37 323a
00000040: 3a10 443a f9cb 673a ad97 813a 4bdf 613a
00000050: c983 7f3a 08d5 9e3a a995 343a 51b9 463a
00000060: bbe9 3e3a 49d9 833a 2636 c03a b412 683a
00000070: bccf 1a3a 5cce 693a 64e1 393a e5aa f63a
00000080: 6b7c 703a 198c 683a c3ad cf3a 9036 913a
00000090: 791f 5a3a 0590 793a 25bd b53a d8c7 9e3a
000000a0: 9d93 553a 6f05 473a bd45 683a fb93 523a
000000b0: ba8f 753a 8630 6f3a ce95 1d3a 887d 863a
000000c0: 9c83 383a bd2d 673a f826 753a b9f1 2e3a
000000d0: 8af8 2c3a e445 5d3a 3a12 c53a 6c3d 563a
000000e0: 6083 313a b663 813a 63e5 a73a 53b7 9b3a
000000f0: 184b 4c3a cc2f 403a 6fba 6b3a 2adf 563a
00000100: 3a1e 283a a543 6e3a 07de 523a 1c61 4e3a
00000110: 07fb 1c3a 899c a33a 01bf 2f3a 1349 863a
00000120: 5e45 843a e5f9 8b3a f911 803a cf8b 543a
00000130: c1b6 803a 1c63 763a 496e 973a f5a9 ab3a
00000140: eabf 423a 2f6f 8a3a acaf 683a 7182 353a
00000150: 84de 3d3a 557a a13a eac4 383a b676 493a
00000160: 50f1 ab3a 3f3d 833a 6b9d b03a 3b61 693a
00000170: dc70 8c3a 2862 853a ad4e 353a d1fc 783a
00000180: 7318 c83a 5bde e53a 13a9 263a 418c a13a
00000190: 4116 103a ad9f ad3a 45e4 853a 60c2 983a
000001a0: 8fcc 663a 25a9 6e3a 35b2 573a 5809 683a
000001b0: 1053 573a 715f 513a d536 293a 2e18 873a
000001c0: f05c 653a 7829 5c3a 2260 a83a 41eb 5f3a
000001d0: f2db 4d3a 5331 683a 3a51 103a 6f25 a73a
000001e0: 9025 933a 4d36 383a c46c 643a 8916 553a
000001f0: 6e85 6f3a e5c0 763a bae2 733a ee6e a53a
00000200: f53f 673a c88d 663a d80d 923a 5c36 913a
00000210: 2acd 1e3a 5c57 863a c356 463a 2dbf 3a3a
00000220: b20a 803a 5c00 0a3a c975 4f3a ecfb 8c3a
00000230: d10a 533a 1b28 1e3a 3331 953a 6b34 433a
00000240: f619 613a d404 7d3a 123d 1b3a a687 563a
00000250: 2fa3 323a 8102 793a 94e3 643a 772f 693a
00000260: 1f09 bc3a f937 b53a f75a 363a 8717 a13a
00000270: 2c1b cd3a adf4 3c3a f9b1 153a 6049 463a
00000280: 7407 803a ce63 1f3a 657c 7c3a 2f43 6a3a
00000290: 7f6f 383a edc9 733a 8037 573a f392 483a
000002a0: 9f88 6d3a 6468 8a3a 442a 483a d162 6e3a
000002b0: 2974 373a 3f44 663a e206 793a 6f20 8f3a
000002c0: 7b67 653a f49f 833a 9fe8 4c3a d893 4a3a
000002d0: d299 ff39 8a82 9f3a f793 233a de19 773a
000002e0: 9136 203a 2636 8b3a c500 573a 9cb3 a33a
000002f0: cb1a 693a a8a7 5f3a 0a2c ba3a 77db d03a
00000300: 7f43 633a 25af 933a 4cdd 353a 2903 2e3a
00000310: 0345 993a 5ac2 573a e8ae 633a 27ae 593a
00000320: 4695 413a 330f 8e3a 17a2 8b3a a7bd 333a
00000330: 2d7e 333a b2ec 713a c48f 383a e037 6c3a
00000340: 4e16 9a3a 75f7 613a 3b5c 733a 5a29 843a
00000350: 017b 8f3a 78c3 2d3a 65ae 363a 4008 253a
00000360: 24e9 773a 1bc6 923a 1b75 553a 3e7c 763a
00000370: 1427 593a 2338 9e3a 02b7 7d3a a691 873a
00000380: 9d69 853a f9de 653a a7f8 723a d708 523a
00000390: 1650 863a e6d6 583a 8af1 673a 9af8 703a
000003a0: 2012 423a bd13 8a3a aacf 633a ae89 883a
000003b0: e43b 793a 93b4 683a 353d 423a 59d3 753a
000003c0: bbf9 563a 46b6 5a3a a0c3 7d3a c877 313a
000003d0: fb13 8f3a 82bd 883a e168 833a 6b2c 2b3a
000003e0: 6f6b 8c3a a935 323a 7fd5 303a 1afb 4d3a
000003f0: fd8d b93a 08b5 373a 0221 d73a 2227 e83a

fc2.weight f4 [256, 256]
0.018434864 0.045690786 0.019447843 0.029231092 0.01925389 0.059392817 0.020585569 -0.04277508
-0.0063212747 0.0054806657 0.04843451 -0.05977601 -0.020672554 -0.05071754 0.06536165 -0.015834603
-0.03870874 0.022415405 0.047175024 0.041540965 -0.013545164 -0.014046557 0.020513901 0.078287296
0.019062337 0.04231743 -0.033465568 0.02831493 -0.033779137 -0.006739743 0.04187852 0.004921042
-0.06414677 -0.06254335 0.036647707 0.0052299644 -0.039465673 -0.010428569 -0.0154554425 -0.0728209
0.039535705 0.01929752 0.040726185 0.016240941 0.06948365 -0.01833925 -0.03718228 0.052212253
-0.067991 -0.041092496 -0.028359167 -0.054800943 0.0028987024 0.0050549563 -0.028612748 -0.012438266
-0.07917433 0.063223526 -0.043401256 -0.04377407 0.019121902 -0.034459785 0.027291505 -0.017665124
0.0010079707 -0.08215366 -0.03769343 0.042450555 0.0034753864 0.0038270175 0.05974891 0.007655927
-0.017161734 0.024327058 -0.028847795 0.048669547 0.054025203 -0.075638115 0.0050093196 0.050003678
-0.039251752 -0.007034068 0.03022407 0.04176848 0.05678803 0.03847128 0.005906377 0.017978488
-0.035843126 0.03454281 0.032930717 -0.06675415 0.033905435 0.04379394 -0.06773894 0.050713144
0.044992484 -0.0052963183 -0.022386521 -0.047428805 -0.047103114 0.029277848 -0.009662477 0.044822443
-0.011538399 0.054458074 0.048211325 0.036258545 0.015912289 -0.05169869 0.05649448 0.052138325
0.046755668 -0.038199525 -0.021628868 0.073027045 0.040248204 0.029778475 0.03084895 0.06155995
-0.030232806 0.008431415 -0.022079945 0.018624809 0.0473084 0.07470066 -0.025588898 0.00840029
0.04405487 0.0028875112 0.014769643 0.021603864 0.03830274 -0.018444208 -0.012973877 -0.018507231
-0.021179685 0.03136938 -0.03795962 0.04684346 -0.009482938 -0.060329884 0.052882433 -0.07588807
-0.04448573 0.046256024 -0.04095002 0.0513066 0.06599478 -0.04104816 -0.0004361662 -0.0472542
-0.022059849 -0.039370928 -0.027525593 0.022136316 -0.026891004 0.04602823 0.029054035 0.03832848
-0.022935359 0.075734586 -0.019328441 0.031996135 -0.025526779 0.010112173 0.03240084 0.05506803
-0.021557162 0.02444611 -0.045612644 0.000585884 0.045305997 0.045346558 0.051777594 -0.023911366
-0.049734537 -0.023142567 0.014758295 -0.010421708 -0.047949288 0.033687178 0.03393449 0.041497685
0.028434869 -0.034177672 -0.026531043 0.022876075 0.014177795 0.057701375 0.005083349 0.047504306
0.01882207 -0.05137905 -0.041232064 0.037702505 -0.06836363 0.05492061 0.0095592635 0.04925607
-0.039242312 -0.041207492 0.019043764 0.017049093 -0.024153683 -0.030182358 -0.059566252 -0.028364059
0.068534665 0.008676749 0.014576491 0.064131215 -0.05203181 0.02656191 0.048618242 0.056906696
0.011487169 -0.018102763 -0.044035304 -0.008760395 0.02894761 0.070841506 -0.02547169 -0.040127605
0.015156669 -0.015761206 -0.03652772 -0.023345163 0.017379774 0.019011138 0.020871252 0.07884633
-0.065307796 0.025360562 0.061877117 0.07119358 -0.02034793 -0.037652668 0.02220716 -0.03661001
0.058263987 0.07515107 -0.04370463 0.0008101027 0.06223695 0.056855727 -0.0060801655 0.020261992
-0.006324548 0.03132681 -0.009311425 0.005118893 0.024194175 -0.0014996071 -0.049691115 0.010762136
00000000: b604 973c 4326 3b3d 1551 9f3c 0b76 ef3c
00000010: 55ba 9d3c e245 733d 11a3 a83c ec34 2fbd
00000020: b222 cfbb 2897 b33b 4463 463d b1d7 74bd
00000030: 7d59 a9bc 32bd 4fbd 54dc 853d 92b7 81bc
00000040: 0e8d 1ebd 83a0 b73c 993a 413d dc26 2a3d
00000050: 89ec 5dbc 8823 66bc c50c a83c 1755 a03d
00000060: 9e28 9c3c 0b55 2d3d 3113 09bd b6f4 e73c
00000070: fe5b 0abd 10d9 dcbb d088 2b3d b140 a13b
00000080: 625f 83bd ba16 80bd e81b 163d 1f60 ab3b
00000090: c2a6 21bd 97dc 2abc d338 7dbc 2023 95bd
000000a0: 31f0 213d d515 9e3c 80d0 263d b90b 853c
000000b0: 724d 8e3d 323c 96bc 724c 18bd 84dc 553d
000000c0: de3e 8bbd 9b50 28bd 7c51 e8bc f476 60bd
000000d0: 28f8 3d3b 0ca4 a53b 4865 eabc dec9 4bbc
000000e0: 2726 a2bd 567b 813d 84c5 31bd 704c 33bd
000000f0: 89a5 9c3c b425 0dbd 6f92 df3c 73b6 90bc
00000100: e21d 843a 2e40 a8bd 6d64 1abd a2e0 2d3d
00000110: 4fc3 633b b3ce 7a3b 46bb 743d 92de fa3b
00000120: c496 8cbc 8a49 c73c 3652 ecbc b859 473d
00000130: 8849 5d3d 28e8 9abd 3825 a43b a8d0 4c3d
00000140: 72c6 20bd 0a7e e6bb 7898 f73c 6d15 2b3d
00000150: 919a 683d 1094 1d3d 488a c13b 9f47 933c
00000160: 3ed0 12bd c37c 0d3d 5ce2 063d 66b6 88bd
00000170: 6de0 0a3d 4661 333d b7ba 8abd 96b8 4f3d
00000180: 0a4a 383d bd8c adbb f063 b7bc b544 42bd
00000190: 32ef 40bd 19d8 ef3c 5e4f 1ebc bd97 373d
000001a0: 8e0b 3dbc 6e0f 5f3d 3d79 453d d783 143d
000001b0: 7d5a 823c 01c2 53bd c266 673d ff8e 553d
000001c0: df82 3f3d 1b77 1cbd 062f b1bc 348f 953d
000001d0: 4ddb 243d fdf1 f33c f0b6 fc3c 4926 7c3d
000001e0: caaa f7bc eb23 0a3c 00e1 b4bc 0e93 983c
000001f0: 74c6 413d a9fc 983d cf9f d1bc 5fa1 093c
00000200: e172 343d 663c 3d3b 5ffc 713c 96fa b03c
00000210: 55e3 1c3d 4f18 97bc 6290 54bc 7a9c 97bc
00000220: 0581 adbc 2e7d 003d 8c7b 1bbd eede 3f3d
00000230: 535e 1bbc 781c 77bd 409b 583d 346b 9bbd
00000240: ab36 36bd f576 3d3d 35bb 27bd df26 523d
00000250: 4528 873d 1e22 28bd 3dad e4b9 9f8d 41bd
00000260: dbb6 b4bc 6943 21bd 5a7d e1bc 3857 b53c
00000270: 864a dcbc 1988 3c3d ba02 ee3c 53fe 1c3d
00000280: efe2 bbbc bc1a 9b3d ae56 9ebc 610e 033d
00000290: 891d d1bc 87ad 253c beb6 043d 048f 613d
000002a0: a598 b0bc 3543 c83c 53d4 3abd 0296 193a
000002b0: c892 393d 50bd 393d be14 543d c5e1 c3bc
000002c0: 71b6 4bbd 7b95 bdbc c7cc 713c d0bf 2abc
000002d0: 7966 44bd 91fb 093d e4fe 0a3d 7af9 293d
000002e0: 3ef0 e83c e3fd 0bbd a157 d9bc 9b66 bb3c
000002f0: fb49 683c 4758 6c3d 3992 a63b e093 423d
00000300: be30 9a3c d772 52bd f4e2 28bd f16d 1a3d
00000310: 3b02 8cbd 6ff4 603d 759e 1c3c bcc0 493d
00000320: 8cbc 20bd 30c9 28bd ab01 9c3c 8aaa 8b3c
00000330: f2dd c5bc fe40 f7bc befb 73bd be5b e8bc
00000340: e75b 8c3d ec28 0e3c 3cd2 6e3c 3a57 833d
00000350: 4f1f 55bd 5d98 d93c ec23 473d ff16 693d
00000360: ae34 3c3c 3f4c 94bc 5d5e 34bd c387 0fbc
00000370: 8a23 ed3c 5a15 913d 01aa d0bc d85c 24bd
00000380: ad53 783c a51d 81bc 179e 15bd 5b3e bfbc
00000390: 0760 8e3c 3fbd 9b3c 30fa aa3c 2f7a a13d
000003a0: 18c0 85bd f4c0 cf3c dc72 7d3d f1cd 913d
000003b0: b4b0 a6bc af39 1abd caeb b53c 61f4 15bd
000003c0: 38a6 6e3d cee8 993d a003 33bd 125d 543a
000003d0: 2cec 7e3d 8de1 683d 203c c7bb 7afc a53c
000003e0: 273e cfbb 8b50 003d f28e 18bc 63bc a73b
000003f0: dd32 c63c 778e c4ba e988 4bbd ac53 303c
