TASK1(B)/best_model_loss_lstm.pth (torch, 174282 bytes, 6 tensors)

lstm.weight_ih_l0 f4 [128, 300]
000000 b3 99 8b be 15 d2 1e bd 28 aa b9 3e de f5 fc bd
       -0.272657 -0.03877457 0.3626263 -0.12351583
000010 33 e2 b9 3e dc e0 f0 3d 1a 00 4a 3e 41 b5 6d 3d
       0.3630539 0.117616385 0.19726601 0.058034185
000020 cc de 7f 3e 9b e5 17 3e 81 37 4e be 02 c6 0f 3e
       0.24987334 0.14833681 -0.2013836 0.14040378
000030 f3 49 00 3e e3 3a 39 be 2a e2 06 3e 17 6f b7 3d
       0.1252821 -0.1808887 0.13172212 0.089567356
000040 27 aa 3d 3c 63 8d 4a 3e 10 fd bd 3e 3c e5 e5 bc
       0.011576212 0.19780497 0.37107134 -0.028063409
000050 9f 26 a8 3d 40 d6 a9 3e 17 e9 38 3e 80 97 40 be
       0.082104914 0.33171272 0.18057667 -0.18807793
000060 d0 5e a2 3e f9 2e be bd bc 25 0c 3d 3e 97 eb bc
       0.3171296 -0.09286303 0.034215674 -0.028758641
000070 42 be 22 bd be 70 eb bc b5 21 2a be 21 76 68 3e
       -0.039732225 -0.028740283 -0.1661442 0.22701313
000080 47 e8 cd 3d 50 95 29 be 7f a7 aa bd 73 6e 9c be
       0.10054069 -0.16560864 -0.083327286 -0.30553016
000090 1e 3c 53 3c ba 4e 8b be b8 d2 74 3e cf 81 e9 3d
       0.012892751 -0.272085 0.23908508 0.11401712
0000a0 a1 34 59 be 35 69 cd be b4 7f 01 3d e1 0b ac bd
       -0.21211483 -0.4011933 0.031615928 -0.08400703
0000b0 54 20 45 be 31 60 3e 3d bb 40 3a bd f0 85 de bd
       -0.19250613 0.046478454 -0.045471888 -0.1086539
0000c0 46 7c 78 bd 31 bf ba 3d 77 be 93 3e 2f 70 0e 3e
       -0.06066539 0.09118498 0.2885625 0.13909982
0000d0 fe 32 39 be c5 68 bf be f6 43 ee bd 2c 37 7d 3d
       -0.18085858 -0.3738462 -0.11634056 0.061820194
0000e0 87 dc 9a 3e ac ee 3a 3e aa 37 1f be 9e ce 01 bd
       0.30246374 0.18255109 -0.15548578 -0.031691186
0000f0 4b 51 30 3c 43 c3 60 3d ba 6c a0 3c d7 07 43 be
       0.010761569 0.054873716 0.019583095 -0.1904596
000100 75 85 e8 bd a9 1a 91 3d 69 f7 c7 bd c8 92 23 bd
       -0.1135358 0.07085163 -0.097639866 -0.039934903
000110 d5 74 37 3e 8d 6c a9 3d b0 ac 03 bd 28 de 3e be
       0.17915662 0.082726575 -0.03214711 -0.18639433
000120 e0 6f 63 3e f0 14 5e be b4 ae 09 be 56 77 e8 be
       0.22210646 -0.21687675 -0.1344555 -0.45403546
000130 2a 35 5f 3d 24 74 f4 bc 90 2a 0d 3e 62 83 d8 be
       0.05449406 -0.029840536 0.13785768 -0.42287737
000140 d6 ec f3 be 42 d0 0f bd 75 3f 19 3e 86 57 bf 3d
       -0.4764163 -0.03511072 0.14965613 0.09342866
000150 ce 4e b8 3c 65 8d 0d bd 08 74 83 3e 87 c9 4b 3e
       0.022498515 -0.034558672 0.25674462 0.19901095
000160 34 4c 3f 3e eb 52 35 3e c4 3d 22 3e 2d 7b fc bd
       0.18681413 0.17707412 0.15843874 -0.123281814
000170 b6 a0 47 bd 2b 58 47 bd 5c 93 a5 bd e0 75 79 bd
       -0.04873725 -0.048668068 -0.08084747 -0.06090343
000180 57 7e 7a 3d a5 00 9f bd 05 b4 4b 3d 31 ef 7f 3e
       0.061155643 -0.07763795 0.049732227 0.24993588
000190 87 5d 9e 3c cd 0a 7a bd 0e cd 2e be d9 84 57 3e
       0.019331707 -0.061045457 -0.1707041 0.21046771
0001a0 ac 39 c4 3d be 43 19 be 58 49 aa 3d 18 b2 3a 3e
       0.095813125 -0.14967248 0.083147705 0.18232
0001b0 32 54 64 3d c0 27 33 be f7 37 42 3e dd 98 dd bd
       0.055744357 -0.17495632 0.18966661 -0.10820172
0001c0 35 f7 80 bd 6e 6a 12 3e 38 f3 b7 3d e6 ca f8 3e
       -0.06297151 0.14298412 0.08981937 0.485923
0001d0 dd 72 11 bd 30 0f a8 bb 7b f6 6f 3d 97 46 34 be
       -0.035509933 -0.0051287636 0.05858467 -0.17605053
0001e0 cf a0 43 3c 74 31 8c be 0c 77 bb bd bc 8e 37 3e
       0.011940195 -0.2738148 -0.09153566 0.17925543
0001f0 49 ed 93 bd ac 51 19 bf d2 3a 85 be 01 a1 ee bd
       -0.07222993 -0.59890246 -0.2602144 -0.11651803
000200 3c 58 a4 be 16 03 4d be 41 e6 12 3e 40 1c 09 be
       -0.32098567 -0.20020708 0.14345647 -0.13389683
000210 bc a9 53 3a 3b 30 aa bc 86 e4 8a 3d 32 ae 72 be
       0.00080743036 -0.020774951 0.06781869 -0.23699263
000220 3f d5 f7 3c 97 be fd 3d 15 bc 9a be 94 d6 4e 3e
       0.03025305 0.12389868 -0.3022162 0.20199043
000230 5f 66 da bd 81 02 d2 bd 31 26 77 3e 43 00 72 3d
       -0.10664057 -0.10254384 0.24135663 0.05908228
000240 97 3d 83 be 55 57 2e 3e f5 78 32 3e 18 9a 84 bd
       -0.25632927 0.17025502 0.17428954 -0.064747036
000250 48 fb 41 be 38 79 31 be 20 58 85 3e 71 42 44 be
       -0.18943512 -0.17331398 0.26043797 -0.1916597
000260 fe 3b 95 be ac ec 8c 3c da 4d 98 bd eb 56 10 bc
       -0.29147333 0.017202698 -0.07436724 -0.008809785
000270 2e 56 18 bd 9a cc 1e be 1d e6 cf be f6 69 b9 bd
       -0.037191562 -0.15507737 -0.4060525 -0.090534136
000280 6f 14 91 be bd f5 0b 3e 3d 97 ef 3d 19 4d 0e bc
       -0.28335902 0.1366796 0.11698768 -0.008685374
000290 ff 76 3e be 18 01 40 be 91 ae 61 3d fc 87 4c 3c
       -0.18600081 -0.18750417 0.05509812 0.012483593
0002a0 2d 71 ea bc e1 76 7f bd f5 fe 79 bd a3 33 f8 3d
       -0.02861842 -0.06236923 -0.06103416 0.12119224
0002b0 d1 02 9b 3d 3a e2 f9 bd 24 d3 9d bd 35 d2 9b be
       0.075688966 -0.122013524 -0.077062875 -0.30433813
0002c0 91 0b 89 3e da d3 e6 bc 5c 03 f9 3d f1 91 5e be
       0.26766637 -0.02817719 0.12158844 -0.2173536
0002d0 1c a4 3f be 88 61 af 3d b7 48 c1 3e df 3a b9 bd
       -0.18714947 0.085635245 0.3775079 -0.09044432
0002e0 44 b8 a4 3c ea ea 26 3d 9b 19 41 be 34 4f 8f 3e
       0.020107396 0.040751375 -0.18857424 0.27990115
0002f0 ab 43 86 3d 5a 80 82 bd 97 1b 9b 3c c8 30 18 be
       0.065558754 -0.06372137 0.018934054 -0.14862359
000300 d6 f6 22 be 7b d5 0a be 2b 83 4d bb b2 90 30 3e
       -0.15914473 -0.13557999 -0.00313587 0.17242697
000310 5c 07 86 bd 9e 14 d8 3e d6 d5 2d be 88 83 bc be
       -0.065443724 0.4220323 -0.16976103 -0.368191
000320 5c 7d 86 3c 45 3c a0 3d 4b 37 94 bd e5 ae be bc
       0.016417198 0.078239955 -0.07237109 -0.023276756
000330 65 ad 8d 3e d9 03 2b bd eb a3 1d be a3 cd 63 be
       0.27671352 -0.041751716 -0.15394561 -0.22246413
000340 c7 4e 06 3d 54 5e ae bd 28 cf 58 be 44 b4 99 3d
       0.03278997 -0.085140854 -0.21172774 0.07505086
000350 01 c2 bd 3d 9a f0 24 3e a2 72 61 3e ac f5 4e 3e
       0.09265519 0.16107407 0.22016385 0.20210904
000360 d7 a6 c8 be a0 da 69 be 25 ab 7f be 45 5e ad be
       -0.3918979 -0.22837305 -0.2496763 -0.33860984
000370 3c 1e f4 3a 07 d4 ee bd 12 dd 66 bc b5 2b e1 bc
       0.0018624733 -0.11661535 -0.014090793 -0.027486661
000380 b2 33 7c be 66 5a 10 3d 15 4e 29 be 0f 64 15 be
       -0.24629095 0.03524246 -0.16533692 -0.1458895
000390 b7 ff bf 3d 0e f5 90 be 62 71 1c be 99 76 71 3e
       0.093749456 -0.28311962 -0.15277627 0.23580398
0003a0 1f 6c 19 bd dd c9 e8 be 5a 86 a1 3c 44 09 44 3b
       -0.037456628 -0.4546651 0.019717384 0.002991275
0003b0 48 0a 63 3b 0d ae 9d be ae f5 44 3d 65 41 de bc
       0.003464358 -0.30796853 0.04808586 -0.027130792
0003c0 c1 ed 20 3d 5e 32 f2 bc 01 88 25 3e ef 76 6f be
       0.03928924 -0.029565033 0.16165163 -0.23385213
0003d0 91 e3 ed bd 1d fd 09 be 09 f8 f8 3d 49 60 3c 3e
       -0.116156705 -0.13475461 0.12156684 0.18396105
0003e0 36 65 a7 3e 58 53 87 3e 6f 6c 87 3d e1 e1 a8 be
       0.32694405 0.26430774 0.06612479 -0.32984832
0003f0 11 7c 8c 3e db 00 f9 bb 60 1f d7 3d 65 0d 53 bd
       0.27438405 -0.007598979 0.10504031 -0.051526446

lstm.weight_hh_l0 f4 [128, 32]
000000 90 35 cb bd a2 26 b3 bd 9a e1 ff 3d 4d e4 8c bc
       -0.099223256 -0.08747603 0.12494202 -0.017198706
000010 91 6a 05 be 4d b8 ad 3e a3 66 bb 3d 1e ba d0 3d
       -0.13028933 0.33929673 0.09150436 0.10191749
000020 a0 83 40 bd ed 8f fd bd 0d 03 39 3e bb 52 14 be
       -0.047000527 -0.12380967 0.1806757 -0.14484684
000030 b6 47 a1 3e c3 c6 4d be a2 65 91 be a5 71 0e bd
       0.31500024 -0.20095353 -0.28397852 -0.03477635
000040 c0 2a 1a be bd 95 dc 3d 90 1c 09 3b 0d b1 82 bc
       -0.1505537 0.10770748 0.0020921566 -0.015953565
000050 f9 de 04 3e 53 de 68 3d 72 21 a6 bd b9 c2 2f bd
       0.12975682 0.05685265 -0.08111848 -0.04291031
000060 ad af 47 be 04 9b c7 3d 8b 67 2d 3e eb a1 36 be
       -0.19500609 0.09746364 0.1693403 -0.17835204
000070 0e 4a 31 be a3 62 0f 3e 0a ca 46 be 8d df 66 be
       -0.17313406 0.1400247 -0.1941301 -0.22546215
000080 5a 37 c4 be a5 8c b1 be 90 fd 01 be b0 76 f9 bc
       -0.3832348 -0.34677616 -0.12694383 -0.030452102
000090 40 93 8c 39 a0 8a eb 3d 46 47 9b 3e 92 4f d5 3e
       0.0002681259 0.1150105 0.30327815 0.4166227
0000a0 8b 54 b1 3e de 49 e0 3d 3b d9 d8 bd be fb 1d 3e
       0.34634814 0.10951589 -0.105883084 0.15428063
0000b0 5c f6 08 3e 35 6f 6a bd 81 8d 48 be 26 38 56 be
       0.13375229 -0.05723496 -0.1958523 -0.20919856
0000c0 78 22 1e bc c7 c6 39 3d 1d 51 b8 be 26 6b 16 bd
       -0.009651773 0.045355584 -0.35999385 -0.03672328
0000d0 29 4e 1a bb e9 13 62 be 7d cc a1 be e7 b3 fa 3d
       -0.0023545122 -0.22077908 -0.31601325 0.12241345
0000e0 8a ea 38 be 17 25 e4 3e a2 31 c7 3d 00 54 44 3e
       -0.1805822 0.44559547 0.097262636 0.19172668
0000f0 0d 15 a1 be 31 cf bb 3d e0 2d 0e 3e 01 09 12 3e
       -0.31461373 0.09170378 0.13884687 0.14261247
000100 11 eb 4d bd ad 33 b1 bd f8 2b 2a be 42 37 88 3d
       -0.050273005 -0.086524345 -0.16618335 0.066511646
000110 da 81 02 bb 4b 51 93 3e ed 05 89 3e 8a dc ad 3e
       -0.0019913823 0.2877296 0.26762334 0.3395732
000120 d6 df 0b 3e a3 2b 38 3c 37 80 df bc 1d 0b 91 be
       0.13659605 0.011240873 -0.027282817 -0.2832879
000130 a6 f1 0a 3e 49 e9 c6 bd b0 af 41 be bc ec 01 3e
       0.13568744 -0.09712464 -0.18914676 0.12687963
000140 f0 15 2f be ed 1d 79 3d 4b 66 8f 3e ba 0e c6 3c
       -0.17098212 0.060819555 0.2800773 0.024176944
000150 10 89 25 3e 01 76 b1 3e e0 ae 0f be e3 60 91 3e
       0.16165566 0.34660342 -0.14031553 0.2839423
000160 f1 f9 9e be 76 cb c2 3e e4 33 26 bd fe 46 90 be
       -0.31050065 0.38045853 -0.04057683 -0.28179163
000170 ab ba 62 3e 06 58 ff bd 3c c6 94 bc c7 71 a6 3d
       0.2214152 -0.12467961 -0.018160932 0.0812717
000180 e1 b9 00 3e 91 cb 09 be db 95 42 3d 9e 3c 13 3e
       0.12570907 -0.1345656 0.047506195 0.14378592
000190 3a 1c 12 3d 79 c2 2b bd 78 01 d9 3d 18 ee ff bc
       0.03567145 -0.04193351 0.10595983 -0.031241462
0001a0 c4 47 20 3e 46 e2 bb 3d e0 05 48 3d 8a 56 56 be
       0.15652376 0.091740176 0.048833728 -0.2093145
0001b0 a4 f6 4a 3e 2f c6 0a be 86 ba a1 bb 99 ef 2b 3d
       0.19820648 -0.13552164 -0.0049355654 0.041976545
0001c0 09 36 45 3b 56 f3 15 bd f0 a9 ea bd 4b 5d 81 be
       0.0030092022 -0.036609016 -0.11458194 -0.2526649
0001d0 56 b7 4f 3e 0d c3 05 be 89 f1 54 3d 33 a8 6e 3d
       0.20284781 -0.13062687 0.05198816 0.058265876
0001e0 6a 4c 07 3e 14 45 a7 3d 2c 75 a9 bc 69 1c 19 be
       0.13212743 0.081674725 -0.020685755 -0.14952244
0001f0 39 fc 17 bd 83 e3 3f be 59 3a ae bd 32 82 46 be
       -0.037105773 -0.18739133 -0.08507223 -0.19385603
000200 75 f9 1e be b2 fd 7c bd 46 b0 5b 3e e9 e7 57 3c
       -0.15524848 -0.06176538 0.21453962 0.01317785
000210 6b d3 18 be e3 15 55 bd 5e b5 a3 3d 97 bf 6c bd
       -0.149244 -0.052022826 0.079935774 -0.0577999
000220 a0 2c 46 bd 57 8a b4 bd 4b 0e 48 3d 8f cc 07 3e
       -0.0483824 -0.08815449 0.048841756 0.13261627
000230 c4 97 ac 3d 91 24 2f be 47 40 52 3e a0 0e be 3c
       0.084273845 -0.17103793 0.20532332 0.023200333
000240 f8 c3 8f 3d 56 57 7c 3c 59 16 82 be d7 b3 8a be
       0.070198 0.015401682 -0.25407675 -0.27090332
000250 0a 1e 22 3d 4b 72 85 be 9b 8d 52 bd d9 e2 63 be
       0.03957943 -0.2606376 -0.051404577 -0.22254504
000260 1c fc 02 bd e4 02 ca bd 45 38 8e bb f8 be 1e 3e
       -0.03197871 -0.098638326 -0.004340204 0.15502536
000270 19 b9 b1 be ba 22 50 3e 3b 29 c7 bc 1b 4b 90 3d
       -0.3471153 0.20325747 -0.024311652 0.07045575
000280 41 f5 ac bc 27 be 65 be a5 13 54 3e dd a1 14 be
       -0.02111304 -0.22435819 0.20710619 -0.14514871
000290 db 36 96 3e ae aa a5 3d 4c 32 18 3e a6 d1 7c 3d
       0.29338726 0.08089195 0.14862937 0.061723374
0002a0 6c 27 11 3e 7a 40 89 be cf bc 95 3d 03 79 26 3e
       0.14175195 -0.26807004 0.07311403 0.162571
0002b0 22 1a 84 3e 01 48 5c be a4 b9 17 be 75 aa c7 3d
       0.25801188 -0.21511842 -0.1481691 0.09749309
0002c0 f4 0e de bb 0d a4 ad bd 7a ce 8c bc 07 34 9f bd
       -0.006776685 -0.08478556 -0.0171883 -0.07773595
0002d0 a2 be 30 bb d3 c1 bf bd 4c 91 2b 3c 83 95 4f bd
       -0.0026969095 -0.09363141 0.010471653 -0.050679695
0002e0 26 62 60 bb c2 72 ec bc 2a 47 95 be d4 7b a3 3e
       -0.0034238189 -0.028863315 -0.29155856 0.3193041
0002f0 71 5d 0b be 78 ee 36 be 31 d0 19 bc e4 73 15 bd
       -0.13609864 -0.17864406 -0.009388016 -0.036487475
000300 01 bd 8c 3d a3 be c3 bd 5c 78 3e be 09 99 43 bd
       0.06871987 -0.095578454 -0.18600601 -0.047753368
000310 6f d9 7a 3d 76 d1 82 3e d7 0d 63 3e ce 16 7e 3e
       0.061242517 0.2555043 0.22173248 0.24813387
000320 87 fa 1b 3e a5 9a 9d 3c d3 78 0f be ca c6 c8 3d
       0.15232287 0.01923878 -0.14010935 0.09803541
000330 d9 da 01 3e 68 c2 05 be 77 7c 76 be 04 47 5c 3d
       0.1268114 -0.13062441 -0.24070917 0.053778663
000340 58 69 91 bc a0 ca d1 bc 8b 9c 1b be 1a 52 20 3e
       -0.017750427 -0.025609314 -0.15196435 0.1565632
000350 f7 7e d6 bc c5 cf b5 3d db bd 31 3d 6e 01 b5 3d
       -0.026183588 0.088775195 0.04339395 0.08838163
000360 9b 0f cc bd e8 61 ca 3d c4 10 8d bc 1a 63 23 bc
       -0.09963914 0.098819554 -0.017219909 -0.009972358
000370 b7 27 14 3e 4e 59 25 be e4 b0 c2 3c 30 0b 68 be
       0.14468275 -0.16147348 0.023765989 -0.22660518
000380 93 f0 9b 3c 7a 37 48 be 1d 46 91 bd a8 e2 57 3e
       0.019035613 -0.19552413 -0.07093451 0.21082556
000390 c0 0e 12 3e 99 c6 48 3d 44 ee 2a be 7a 5e 19 3e
       0.14263439 0.049017522 -0.16692454 0.14977446
0003a0 35 60 ac bd 69 a0 52 3e a1 b7 d3 3c a4 39 a5 3d
       -0.084167875 0.20569004 0.025844397 0.08067635
0003b0 7d 6e 05 be 68 a3 0d 3d ed 20 02 3e 89 80 de bd
       -0.13030429 0.034579664 0.12707873 -0.1086436
0003c0 ff 52 03 bd 0b e1 08 3c 19 41 25 3d 38 8f 06 3e
       -0.032061573 0.008354436 0.040345285 0.13140571
0003d0 d8 ec ae 3d 04 44 0f 3e ee 37 4d 3e b2 79 04 3e
       0.08541268 0.1399079 0.20040867 0.12937048
0003e0 90 49 03 3c d1 a2 31 3e 7c 84 17 3d 08 6d f3 bd
       0.008013144 0.17347266 0.03699158 -0.118860304
0003f0 3e 2b 80 bd af 7a 4f 3e e3 65 8c be 9f 62 35 be
       -0.06258248 0.20261644 -0.27421483 -0.17713402

lstm.bias_ih_l0 f4 [128]
000000 39 a8 ab bc a1 1d 16 bd 21 53 9a bc e8 5e b3 3d
       -0.020954238 -0.03664935 -0.018838467 0.08758336
000010 d2 05 cb 3d 3d 3d b5 bd ae 8c 90 bc a2 72 9e 3c
       0.099132195 -0.08849571 -0.017645206 0.01934177
000020 e1 17 94 bd 8e 53 2b 3e 40 94 5f bd e9 bc b8 bc
       -0.07231117 0.16731092 -0.05458474 -0.022551017
000030 28 f7 18 be 6e 46 dd bd 39 69 0f 3e 8b 01 88 3e
       -0.14938033 -0.10804449 0.14004983 0.26563677
000040 a3 05 a7 3c 9d 8a 21 3d c4 a4 c2 bd 3a a8 bb 3b
       0.02038843 0.039438833 -0.09504083 0.0057268413
000050 23 68 46 be bb be 12 3e a7 08 89 bd 62 f1 f6 bd
       -0.19375663 0.1433057 -0.066911034 -0.12057759
000060 83 60 f6 3d 55 38 6b 3d 25 85 c4 bd 44 49 26 be
       0.12030127 0.05742677 -0.09595708 -0.16238886
000070 b9 d9 5c 3d c0 a9 53 3d e6 7c 9d bd 75 1f 3b bd
       0.053918574 0.051675558 -0.07689838 -0.045684297
000080 38 43 a6 bd 20 38 8b 3e 70 7f fe 3d f1 41 e6 3d
       -0.0811829 0.27191257 0.124266505 0.11243046
000090 db d7 bc bc 4a 85 8b 3e f3 68 1c 3e df 6d dd 3d
       -0.023052147 0.2725013 0.1527441 0.10811972
0000a0 a5 d1 0d 3d e2 3b 37 3e f2 b1 5f 3e d3 8c ac 3d
       0.03462376 0.17893937 0.21845224 0.084252976
0000b0 4a 0c 16 3e ff 30 c1 3d 03 6d 56 bd 31 48 89 3d
       0.14653125 0.094331734 -0.052350055 0.067032225
0000c0 f1 b9 74 3c 17 fb 3f 3e 84 38 9b bc 47 f7 da bb
       0.01493691 0.18748127 -0.018947847 -0.00668231
0000d0 73 d3 3f 3d 25 26 49 3e 39 41 ee bc 02 4f 7c bd
       0.046832513 0.19643457 -0.029083835 -0.061598785
0000e0 83 da 9d bd 47 7e fa 3d 42 0f ff 3c ad 87 8b 3e
       -0.077076934 0.12231117 0.031135205 0.2725195
0000f0 e5 4a 40 3e 6e e2 84 3e fa ce 4f 3d f4 4a 17 3e
       0.1877857 0.25954002 0.050734498 0.14774686
000100 f6 c2 00 bd ec 51 90 bc b9 0f fa bd c5 a3 00 be
       -0.03143593 -0.017617188 -0.1221003 -0.12562473
000110 fd 2b a0 bb b5 be b6 3a 1e 16 8e 3d 56 74 04 3d
       -0.0048880563 0.0013942333 0.06937812 0.03233751
000120 5a 94 be 3d 99 c7 f9 bd da 5d ff 3d db 1f b9 3d
       0.093056396 -0.12196273 0.12469073 0.09039279
000130 7a 19 2c 3c b5 a7 e9 bd e5 5a e7 3d b5 24 da bd
       0.010504121 -0.11408941 0.11296634 -0.106515326
000140 f2 39 14 3e da 31 aa 3d 96 f8 ec 3d e5 51 93 bd
       0.1447523 0.0831029 0.115708515 -0.071933545
000150 15 0e c3 3d cf 27 8c bd ee 56 a8 bc fa fe e2 bd
       0.0952417 -0.068435304 -0.020549264 -0.11083789
000160 0a c2 c9 bd ef 00 19 3c 2c 9e 3d bd 3d 1a a3 bd
       -0.09851463 0.0093386015 -0.046293423 -0.07963989
000170 71 6a ec 3d 9a 89 6e bd c6 53 d5 3d 47 f8 6a bd
       0.115437396 -0.058236696 0.10416369 -0.057365682
000180 42 cc e4 3d 7a 03 23 3d 09 fc 44 bd 1b 48 e4 3d
       0.111717716 0.039798237 -0.048091922 0.111465655
000190 09 8d ad bd aa 68 9f 3d e8 d6 8a bd 00 59 6c 3e
       -0.08474166 0.07783635 -0.06779271 0.23080826
0001a0 06 bf 28 bd 13 fb 05 3e f0 0e 9f 3e ec 48 e6 3a
       -0.0411978 0.13084058 0.31066084 0.001756934
0001b0 b0 27 99 bd 6d 91 cb 3b d3 3d 1c 3e af a3 39 3e
       -0.07478273 0.0062124045 0.15257959 0.18128847
0001c0 c0 4b 81 bd af c7 cc 3c e9 c2 78 3e 67 eb da 3d
       -0.06313276 0.02499756 0.24293102 0.10689431
0001d0 ab 79 93 3d c0 95 79 3e 46 46 6a 3e 07 42 39 3e
       0.07200941 0.24373531 0.2287837 0.18091594
0001e0 ca f5 af 3b b5 64 f3 bc ae 9f a0 3e 8c 0a 92 3e
       0.0053698765 -0.029711107 0.31371826 0.28523672
0001f0 d1 65 c2 3d e6 a5 21 3e 78 90 cd bd a2 10 5a bd
       0.09492076 0.15785941 -0.10037321 -0.05323852

lstm.bias_hh_l0 f4 [128]
000000 55 5a 62 bd 70 6c 80 3c fc 52 8b bd 6e 04 29 bc
       -0.05526193 0.015676707 -0.068029374 -0.0103159975
000010 94 30 b1 bd 36 13 60 bd d6 35 40 be 58 3e f0 bb
       -0.08651844 -0.05470582 -0.18770537 -0.0073316507
000020 1d 4e 83 3d 3c 2d 46 bc 69 48 1d 3e 96 28 07 be
       0.06411383 -0.012095746 0.15359654 -0.13199076
000030 06 79 50 3a a0 48 af 3d af 2d 16 be ee a0 cb bc
       0.0007952604 0.08558774 -0.14665864 -0.02485701
000040 9a 88 63 3d 15 73 68 bd 01 b2 15 3d e5 d6 d0 3d
       0.055550195 -0.056750376 0.03654671 0.10197238
000050 6e 47 b8 bc e1 6e 85 3d e6 d8 df bc ef 22 9a bc
       -0.022494998 0.06515289 -0.027325105 -0.018815486
000060 61 9f e1 3d df 50 3e 3d 3c 36 0a be c8 2e ac bd
       0.11016727 0.046463843 -0.13497251 -0.0840736
000070 2e 79 b8 3d 5d ef 2f be c1 e5 77 be 13 fd 64 be
       0.09007488 -0.17181154 -0.24208738 -0.22362165
000080 87 d0 1b 3d 20 9f 19 3e 62 56 71 bd 97 c5 24 3e
       0.038040664 0.15002108 -0.05892027 0.16091
000090 17 ee d0 bd 8b 9f d5 3d 0d f1 2b bd e4 e7 d8 b9
       -0.10201662 0.10430821 -0.04197793 -0.00041371502
0000a0 19 f2 b9 bd 4e bb a9 3d bb 9a 83 bd ae a4 78 3e
       -0.090793796 0.08287679 -0.06425997 0.2428157
0000b0 d5 ed ae 3d a7 2c fb 3d 0e 9a 93 bc bf fa 91 3c
       0.085414566 0.12264376 -0.018017795 0.01781976
0000c0 ab 99 31 3d d4 34 04 3e ff 8f 6b 3e 6d a5 97 3d
       0.04335944 0.12910777 0.23004149 0.07404599
0000d0 3d 7e 95 3e 27 0b 17 3e 6b 3c 0d 3c c2 05 7a 3b
       0.29197875 0.14750348 0.008620362 0.0038150405
0000e0 21 da af 3d 0c 8c 17 bb 3e 19 f4 3b c9 4c 7a 3d
       0.08586527 -0.0023124246 0.007449298 0.061108384
0000f0 a2 d9 0a 3e 8c ee 23 3e e8 90 81 3d 2c f9 d7 3d
       0.13559583 0.16008967 0.06326467 0.10545573
000100 ba 86 00 be ae d9 be 3c 63 b2 ad bd b9 22 68 3d
       -0.12551394 0.023297157 -0.0848129 0.05667374
000110 9d 3e 8c 3d c2 5f 2a bd 5d 72 0d 3e 78 59 af 3d
       0.0684788 -0.041595228 0.13813157 0.08561987
000120 8b c4 9d 3c aa e7 23 3d 76 47 c1 bd ec 8a c5 bc
       0.019258758 0.040015854 -0.09437458 -0.024114095
000130 ba e0 16 3e 34 85 b1 3b cb b5 08 be 02 20 65 3d
       0.14734164 0.0054174904 -0.13350599 0.05593873
000140 18 f3 d6 bd c2 c6 fe bd cc 4d 47 bd 89 aa 2b bd
       -0.10495585 -0.12440254 -0.048658177 -0.041910682
000150 52 11 30 3c 6e ca 1c 3a d6 08 4b ba c5 1b 29 3e
       0.010746317 0.0005981092 -0.0007745152 0.165145
000160 18 ed d6 bc 4e 87 66 bd 4b f2 ca 3d fe 07 ab 3d
       -0.026236102 -0.05628138 0.09909495 0.08351134
000170 c8 7e 11 be ef 90 07 3e 8b 82 c9 bd 38 81 d0 bd
       -0.1420852 0.13238882 -0.09839352 -0.101808965
000180 d1 bd 89 3e 62 0c 64 3e 15 3a bc bd d8 90 72 3e
       0.2690263 0.22270349 -0.09190766 0.23688066
000190 a1 59 b7 3d dc 92 46 3e 3c 49 21 3e 9b 28 6a 3e
       0.08952642 0.1939196 0.15750593 0.22867052
0001a0 16 ba 9c 3d 34 c9 46 bd 9d ab 1d 3e 87 f8 c5 3d
       0.076526806 -0.048531726 0.15397497 0.096665435
0001b0 e2 1e 15 3e 73 e0 5c 3e 45 bc 25 3e 3c e1 06 3e
       0.14562562 0.21569996 0.161851 0.13171858
0001c0 7b d6 51 3e cc 40 7b bd 62 4a 49 3e a9 c4 38 bc
       0.20491974 -0.061341092 0.19657281 -0.011277356
0001d0 b3 c3 65 3e 88 34 b6 3d b7 35 33 3e ec 0e 87 3e
       0.22437935 0.08896738 0.1750096 0.26378572
0001e0 0a 03 87 3e 4c b4 48 3e 95 f4 96 3e 07 52 8b bc
       0.26369506 0.19600028 0.29483476 -0.017006887
0001f0 b0 7c f8 3d 55 27 02 3e 45 5c bd bd 7a 02 a7 bb
       0.12133157 0.12710316 -0.09246115 -0.005096731

fc.weight f4 [4, 32]
000000 3d 96 61 3e 65 c3 ba be ae 96 37 3e 4d 08 a8 be
       0.22029968 -0.364772 0.17928573 -0.32818833
000010 02 1c 49 be 43 db 96 3e 26 4e 67 3e 6b f8 37 be
       -0.1963959 0.29464158 0.22588405 -0.17965858
000020 ba 28 16 bc aa 78 94 be 66 f7 e2 be be de 05 bf
       -0.009164983 -0.2899831 -0.44329375 -0.52293
000030 d0 df ae 3e 79 56 b6 be 4a 23 82 3e 1c 7c 2b be
       0.3415513 -0.35612848 0.25417548 -0.16746563
000040 74 8c 89 3d aa 43 d4 3d d7 b2 09 3e 3b 6e 89 be
       0.067162424 0.103644684 0.13447128 -0.26841912
000050 a4 db 73 be bc e0 1b 3f f0 02 9b be 2f 86 bd 3e
       -0.23814255 0.6088979 -0.3027568 0.37016436
000060 68 2f 16 3e 51 39 64 3e e9 1a 0b 3e d2 94 eb 3c
       0.14666522 0.2228749 0.13584484 0.028757486
000070 2c f8 ee 3e 3d eb db be d6 91 ba 3b 0b e2 35 3e
       0.46673715 -0.4295291 0.0056936545 0.1776201
000080 52 1a 9b be 7d ca 55 be 5c 63 c5 be 99 27 ea 3e
       -0.30293518 -0.20878024 -0.38552368 0.45733336
000090 84 71 e2 be 9f 9c 84 be a6 3e 3a 3d 9a f6 e8 3e
       -0.4422723 -0.25900742 0.045469902 0.45500642
0000a0 32 42 b4 3e 7c fb f5 3e d2 dd 58 be 88 54 3a be
       0.35206753 0.4804343 -0.21178368 -0.18196309
0000b0 9d db a9 be 16 51 f2 3e df 9c b3 be 44 3b a9 be
       -0.33175364 0.4732749 -0.3508062 -0.3305303
0000c0 72 00 8c be ab cd e0 3e 44 84 67 be 3a 94 08 3f
       -0.2734409 0.43906912 -0.22609049 0.53351176
0000d0 0b 41 73 be f4 a2 46 3d f9 ee 60 3e 4b 7a a4 3e
       -0.2375528 0.048495248 0.21966161 0.32124552
0000e0 10 77 9b be 2a 30 39 3e b7 7e 8d 3e d6 1a 98 be
       -0.30364275 0.1808478 0.27635738 -0.29707974
0000f0 be 5b 6d 3e bd 7a 9d 3e eb f9 f4 be 99 11 3d be
       0.23179528 0.30757704 -0.47846922 -0.18463744
000100 8c 7c 7f 3e ab 8c 0e 3e 67 c2 36 3e ba 7f 07 be
       0.24949855 0.13920848 0.17847596 -0.13232318
000110 bd 9a 58 3e be bf e8 3d 2f 36 8a be 14 19 c7 be
       0.21152778 0.11364697 -0.26994464 -0.3888632
000120 e5 d1 42 be e2 77 00 be bf 58 c4 3e 9f 56 60 3e
       -0.19025381 -0.12545732 0.38348958 0.21908043
000130 bb bd 3f be 1d 99 04 be f4 2b c7 bd 64 ae c0 3e
       -0.1872472 -0.12949033 -0.0972518 0.3763305
000140 ed 53 5f 3e 44 b3 1d be a6 e8 be 3e 31 0d 8f 3e
       0.21809359 -0.15400416 0.37286872 0.27939752
000150 bf 9d ef 3e e8 7c 61 be 5a f5 dc 3e ee e1 a1 be
       0.46800038 -0.22020304 0.43155938 -0.31617683
000160 b3 98 3f 3e d7 df b3 be aa 0f f9 be 20 1d 6e be
       0.18710594 -0.35131714 -0.48644763 -0.23253298
000170 27 3e e0 bc 1a 08 cb be 98 e8 63 3e 6b bf 44 3e
       -0.027373387 -0.39654619 0.22256696 0.19213645
000180 a5 e5 76 be 28 4c 94 3e 79 63 e8 bc cf ce f9 3d
       -0.2411104 0.28964353 -0.028367745 0.12197649
000190 ea bf bc 3e 0a 9d 99 be 8c 43 89 be f0 b6 4c be
       0.3686517 -0.30002624 -0.26809347 -0.1999166
0001a0 83 84 94 be a3 d5 62 be ad 85 97 3e 2d 8c d4 3e
       -0.29007348 -0.22151808 0.29594174 0.41513196
0001b0 17 0d bc bd f0 d6 46 b9 2a bd d8 3e ee ee 5a 3e
       -0.09182184 -0.00018962822 0.4233182 0.21380207
0001c0 23 ba aa 3e c4 ef f9 bd 0c 29 99 be cd 2b 7d be
       0.33345136 -0.12203935 -0.2991413 -0.2472374
0001d0 99 d0 e9 bd 77 f1 7f be be b4 3c be 10 65 f7 bb
       -0.1141674 -0.24994455 -0.18428323 -0.0075498894
0001e0 bc 99 f8 3e dd 3a 98 be 17 66 71 be 4f 17 89 3e
       0.4855479 -0.2973241 -0.235741 0.26775596
0001f0 f3 f1 9b be 40 89 aa 3e ac bc 70 3e 30 75 18 3f
       -0.3045803 0.33307838 0.23509473 0.59553814

fc.bias f4 [4]
000000 42 c4 e1 3d d6 d8 63 bd 70 93 2d 3d 93 b1 8c 3d
       0.11023761 -0.055626713 0.042376935 0.06869807
